model/distq.pt (torch, 179039 bytes, 6 tensors)

0.weight f4 [256, 37]
00000000: 909e ab3e 42be 273d 441e 11be 2238 10be
00000010: e981 943c 8fbe 05bc 1780 413c 4380 1e3e
00000020: e85a cfbd 799d e1bd f7e0 9e3d 5417 87bd
00000030: 854e 9dbc 6a62 24be 4a05 81bd e6cb b23d
00000040: 4f97 c73d 8c21 8dbb 8948 223d 8871 5b3c
00000050: 4b19 89bc 29f5 bc3c c1b2 5bbe e5d2 c1bd
00000060: 1e6f c13c edec cd3c a91d 54be e1e2 cdbd
00000070: 9af4 343d 319f 0980 c72d 453d b1c2 0880
00000080: 7276 63be c5ed 33bd c40d a9bc fc20 2fbd
00000090: b636 90bd fb9f 3a3e 99d7 babd 55f9 be3e
000000a0: 0173 693d 032a ea3d 06ee b83d 3c30 ae3d
000000b0: 2a9b b53d 7ee2 bcbd 8145 ad3d 8f53 0e3e
000000c0: 575b 32bc e470 c63d 394c 10be 5214 883a
000000d0: b9f2 37be b162 313c ce58 753d 8598 0c3e
000000e0: 2e20 47bd 8379 de3d c17e 1c3d b416 a73d
000000f0: 0448 70bc 229a a33d 3263 e5bd 81fe bdbd
00000100: 1764 9cbd 9afb 5bbe bdd0 0380 223e a33d
00000110: c171 0800 b537 503d e37c 6f3e 8dd7 ee3d
00000120: c687 0abe 13d6 a5bd c854 343c e40f 183e
00000130: 7692 edbd 1aab 57bc 036f ecbb 8308 e03c
00000140: 37ec 90bd be22 bbbc c5de c73c f5c0 a5bd
00000150: 9317 03bd f3dc 8fbd 0f01 04bd fbc9 1dbc
00000160: c9fb afbe 3743 23bd f05d 123d a9a9 e6bc
00000170: c46e 06bd d5c3 2a3e 18fe f23d 501b 363c
00000180: 3669 1b3d 20bc 5e3d 8c1b cabd 2941 9a3c
00000190: 69c0 c0bd b3ba 4f3d eb2b bfbc 7523 0000
000001a0: 9e42 bebd 650a 0000 5430 24bf b32e 46bd
000001b0: 1656 5fbc da2d 8e3e bbd3 0d3e 8781 23bd
000001c0: 7abd febb fa4a 74be 4585 623d b132 cb3d
000001d0: e8c5 963d 678e 933c 920e 4a3e 8ee8 f63b
000001e0: 4339 a3bd e4f8 f73c 235c 50be f0fa 4dbe
000001f0: 0ea8 a7bd 1181 0ebe ecef f8bb 16bc 013c
00000200: e065 a03d 92d0 7e3d 0214 0a3d 6181 1fbe
00000210: d1a7 12bc deb6 3c3e 137e c3bc 8985 843d
00000220: f19c 1a3e 80a6 713d ebdd 9c3d 71f5 253d
00000230: 6122 0100 5f80 283d 4e57 0900 4f85 c0bd
00000240: 6fe4 c8bd 1d7d 0abd a01a 2bbe e4a6 ca3d
00000250: 6cba bb3d 995a 58be ae9a c8bd ae18 61bd
00000260: 5709 cf3d 4093 163d 1794 ad3d 829e 22be
00000270: fc89 fa3c 03b5 313d a85f 1d3e 1646 bfbe
00000280: a47d e33c c5e6 0ebe ff07 9f3c 3b6a 373d
00000290: d6fa c33d df2f aa3b 83e2 063d 99f1 cbbd
000002a0: 856f 853d bd9d 813c 49e2 33be ac75 13bd
000002b0: 0099 22be ca47 f5bc 0725 533d 696b 933d
000002c0: 897e 063e 8a94 0280 bb89 bdbd 3427 0300
000002d0: be16 0c3e d625 363c 1af8 ccbc 2bd0 663d
000002e0: 3cce 5abd c15c 63bd 60df 8c3e db7e 973a
000002f0: cb34 08bd 900b 7cbd e1dd a33d cf5e 1ebe
00000300: d8cd 21bd a39a 8e3d 4b78 97bd 2462 79bb
00000310: 908a 1cbe 127b 75bd b6d6 44bd 6d8d 64be
00000320: fc26 89be 62b2 c2bc 1a70 febc d550 ae3c
00000330: c4a7 c5bc 1773 5b3d 2cb4 cf3d a3e6 9e3b
00000340: 03b6 863d 78f7 e2bd 1e36 bebd 0934 58bd
00000350: 22b8 453e 05c1 a93d 2705 0280 4a3c 63bc
00000360: 3036 0000 74c1 dc3e 6d47 a8bd 80fc 7a3e
00000370: 9f1b 4abd b3a8 b63c 65be 7fbe 8bd1 83be
00000380: 0ba6 4e3e 1443 66bb 4ae5 f4bd 83f0 963d
00000390: 7b78 37bd 34a7 d4bc 9db1 48bd 7f24 cf3d
000003a0: 4d20 b0bd 1f11 29be bfb9 0b3e 582c 043e
000003b0: f5bb 0c3e 20d6 b5bd e562 95bc c9e1 b93d
000003c0: 5d4d 5f3b 4167 603c 37e5 07be b334 083d
000003d0: 5086 21be 3041 94bd 2cd2 81bc 33d3 39be
000003e0: 1a14 6f3d cd6a a73d d41c 17be 1cca 0700
000003f0: e05b 53bd 503e 0880 30cf 69be 0ebb 113e
0.3351941 0.04095293 -0.14171702 -0.14083913 0.018128352 -0.0081631085 0.011810324 0.15478615
-0.10124761 -0.11016364 0.077577524 -0.06596246 -0.01920248 -0.16053167 -0.06299837 0.08730297
0.09745657 -0.0043069776 0.039619956 0.013393767 -0.016735693 0.02306612 -0.21454908 -0.09464053
0.023612555 0.02513739 -0.2071444 -0.10053039 0.044178583 -8.83627e-40 0.04813936 -8.04526e-40
-0.22213152 -0.043927927 -0.020636447 -0.042756066 -0.07041685 0.1822509 -0.09123153 0.372996
0.056994442 0.11433794 0.09029774 0.08505294 0.08867486 -0.092228875 0.084605224 0.13899063
-0.010886035 0.09689501 -0.14091577 0.0010382032 -0.17963685 0.0108267525 0.059899144 0.13730057
-0.048614673 0.1086302 0.03820682 0.08158627 -0.014665607 0.07988383 -0.11200561 -0.092770584
-0.07636278 -0.21482697 -3.50388e-40 0.07970835 7.75491e-40 0.050834376 0.23387484 0.11662207
-0.13528356 -0.08097472 0.011006542 0.14849812 -0.11600201 -0.013163352 -0.007215382 0.027347809
-0.070763044 -0.022843715 0.024398217 -0.08093444 -0.032004904 -0.070245646 -0.032227572 -0.009630675
-0.34371784 -0.039859023 0.035734117 -0.028157072 -0.032820478 0.16676266 0.11864871 0.01111491
0.037942134 0.05437863 -0.098685354 0.018829899 -0.09411699 0.05071516 -0.023336371 1.272e-41
-0.0929005 3.729e-42 -0.6413624 -0.04838438 -0.013631364 0.27769357 0.138503 -0.03991845
-0.007774052 -0.23856726 0.055302877 0.09921778 0.07361966 0.018012239 0.1973212 0.007535047
-0.07969906 0.030270047 -0.20347647 -0.20115256 -0.08186351 -0.13916422 -0.0075969603 0.007918378
0.07831931 0.062210627 0.033710487 -0.15576698 -0.008951143 0.18429133 -0.023863828 0.06470782
0.15098931 0.058996677 0.07659515 0.040517274 1.04168e-40 0.04113805 8.57838e-40 -0.094004266
-0.09809195 -0.033810724 -0.16709375 0.09895113 0.091664165 -0.2112831 -0.09795128 -0.054955177
0.10109203 0.036761522 0.084755115 -0.15880778 0.030583374 0.043385517 0.15368521 -0.3735816
0.027769871 -0.13955219 0.019412993 0.044779044 0.095693275 0.005193695 0.032930862 -0.099581905
0.06515411 0.015822286 -0.1756679 -0.036000893 -0.15878677 -0.029941458 0.051548984 0.07198221
0.13134207 -2.36957e-40 -0.092547856 2.8957e-40 0.1368055 0.011117419 -0.025020648 0.05635087
-0.053419337 -0.05550838 0.27514172 0.0011558192 -0.033253472 -0.061534464 0.080013044 -0.15465854
-0.03950295 0.06963088 -0.07395991 -0.003805288 -0.15287232 -0.059931822 -0.048056327 -0.22319575
-0.26787555 -0.0237667 -0.031059314 0.021278778 -0.024127848 0.053576555 0.10141787 0.0048492714
0.06577685 -0.11082357 -0.09287666 -0.052784 0.19308522 0.08288769 -1.8552e-40 -0.0138693545
1.9439e-41 0.43116343 -0.082167484 0.24510384 -0.049342748 0.022297239 -0.24974973 -0.25745806
0.20180528 -0.0035135197 -0.11957796 0.07370093 -0.044792634 -0.025958635 -0.04899751 0.10114383
-0.08599911 -0.16510437 0.13645075 0.12907541 0.13743575 -0.08878732 -0.018235633 0.09076268
0.0034073212 0.013696493 -0.13271032 0.033253383 -0.15773892 -0.07238996 -0.015847288 -0.18146972
0.05836878 0.081746675 -0.14757091 7.15352e-40 -0.05160129 -7.57037e-40 -0.22832942 0.14231512

0.bias f4 [256]
00000000: 3b37 033e bbef aebd 812e 82be 9b52 ff3d
00000010: f14e 13bc e630 1a3b cc06 15bd 2499 ccbd
00000020: 3478 853d 98fe 9abd 3925 b5bd be45 ae3c
00000030: 2592 113d d853 5cbe f353 1ebd dca3 12be
00000040: 1ec2 bebd 7712 f9bd 2834 9abe 51af 58be
00000050: c764 3abe af94 50be bab9 2fbe 7371 6bbe
00000060: 02d3 a43d df0e a9bd a99d 053e 514e 40bd
00000070: 06a8 efbc 0733 70bb 346c 58be dc05 12bd
00000080: 6a68 b13d 0ac5 14be 0411 e4bc 97c3 2cbe
00000090: 1940 4c3e 8902 133c 0898 843c 6c33 38be
000000a0: f3bf 93be 5ce6 27be 2595 75bb ce5f 15bd
000000b0: 62aa 13bb b9a7 d8bc 9f33 38be 1807 4b3e
000000c0: e838 303c 2d10 d03d bd1e 3cbe 07a5 e7bc
000000d0: cba1 57be e409 08be 436c e63d b507 c73c
000000e0: 0111 d43d f97d 673d 3490 bb3d d707 803d
000000f0: 7d8d 20bd d1d3 983c 47e5 5bbe af97 58be
00000100: b86a 2bbd 5e0f cb3c bb0b 99be 1029 5abd
00000110: bca4 3fbd 6394 41bd 8be6 bebe aed0 9f3d
00000120: 773a 83bd d62c 3cbd 61a0 fc3d f06e 9c3d
00000130: bd12 20ba 073a b0bd 27ad 473c 5284 f5bd
00000140: b8cb 103e 2e89 cabc 7ae1 393d eff4 d13d
00000150: abd9 b7bd 6450 5dbe 2d8f 703d 4ffc 63be
00000160: 370c cbba fb19 5d3e 1c40 1ebe f12c 4cbe
00000170: 00e2 103e 8d8c 82bd f638 61be 4ecd af3d
00000180: 39b2 4d3d d415 9c3d 5552 9ebd a5b1 8cbe
00000190: 602a 603c 4c91 a3be c15b 3abe e44c 7fbe
000001a0: a103 d33c 5833 95bd 38cc dcbd ea71 c53c
000001b0: acc6 61be 8bc8 f23d 4929 35bd bb4c 53be
000001c0: ad7f fc3c 76f0 2b3e 3efe 1e3d e92d 703d
000001d0: 5679 b2bc 4c2f 2cbd 6f52 283e 0f4f ffbc
000001e0: f2c4 1dbd 840b 8a3c ef48 4b3e 68be 24be
000001f0: 42a0 8abe e24c 023b ddf2 c2bc cd56 0ebe
00000200: 60e8 b1bd 7052 9bbd e421 1fbd 9066 f03b
00000210: 1e1d 243c 0f44 2e3c ee8f 5bbb 5354 19bd
00000220: 8833 533d 0051 f7bd 87de a23d 5bc0 2cbe
00000230: 8662 ddbd 502a 8abe 7abc 70be a364 af3d
00000240: 8362 1cbe 78ae 6dbe 8821 12bd a6bb 38be
00000250: fb0f b0bd a6ae 78bd a178 81be 6295 0fbe
00000260: a56a 13be df0b 18bd 1419 6ebe c280 1dbe
00000270: c559 5dbd e201 00bd 6227 edbd a44a fc3d
00000280: 214e 053e 6750 9d3d 2763 2cbe 02b4 f4bd
00000290: 0b69 953d 8286 553d bb03 c1bd 437d 0ebe
000002a0: 8282 71be e81a 73bd 324f c0bd 79cb 033e
000002b0: 071c 28be 514c cd3d 5638 16be a06a 8cbd
000002c0: 0314 60bc 12a7 94be dcee 63bd ab11 05be
000002d0: 0865 a23d edfc ac3d f85a 77bd ea21 23be
000002e0: c7ad 593c ff3a 943d c0c9 4cbd 0bb9 99be
000002f0: 90b4 cbbd 8772 073d d777 44bd 5fbd 1fbe
00000300: d33d fabd 2545 ff3d e857 f8bb 00cf 9f3d
00000310: 9702 60be 802c 91ba 51c2 c23d e56c 07be
00000320: 88f7 e7bd 83ae 0cbd e5cc 03be 0aa4 47bd
00000330: f079 4bbe a18b 96bc 21ee 06ba 42de 24bc
00000340: 02bb 893d 9ee5 883b 580b 343e eb4b 4bbe
00000350: 2f4f 653d 576e e8bd 50bb f9bc d8fa 083e
00000360: 6deb 8bbe fc2b 76bd d9f3 d3bc bf0b 95be
00000370: 88c9 9f3b a717 423d 0404 9bbd d3c8 c9bd
00000380: 9be2 aabd 8886 cbbc 68d1 f33d 7ca7 24bd
00000390: 077d 333e 3307 10be 8b67 56bd 267a 39bd
000003a0: 2c3f dbbb d6b7 96bd 6988 053e c454 133e
000003b0: e572 933a 7553 42be 8673 27bd 2b83 bdbd
000003c0: c1bf 133e 03e7 16bd 52b3 d5bd a855 7ebc
000003d0: cc31 8e3d d6b7 8a3d 9a1f c0be d190 6bbd
000003e0: d2f3 e83d c346 95bd 28de 60be b0dd 1dbe
000003f0: b080 003e 58b6 77be ca71 8abe facc 3b3e
0.12814038 -0.08541819 -0.25426105 0.124669276 -0.008990989 0.002352768 -0.036383435 -0.09990147
0.065170676 -0.07568091 -0.0884499 0.02127349 0.035539765 -0.21516359 -0.03865428 -0.1432032
-0.09314369 -0.12161725 -0.30117917 -0.21160628 -0.18202506 -0.20369218 -0.17160693 -0.22992496
0.08048059 -0.082547896 0.13048424 -0.04694969 -0.029254925 -0.0036651508 -0.21135026 -0.03565012
0.086624935 -0.1452829 -0.027840145 -0.16871487 0.19946326 0.008972772 0.016185775 -0.17988366
-0.28857383 -0.16396469 -0.003747293 -0.03646832 -0.0022531976 -0.026447164 -0.17988442 0.19826925
0.010755755 0.10159335 -0.183711 -0.028276933 -0.21057813 -0.13285023 0.11251118 0.024295667
0.10354806 0.05651662 0.09158364 0.06251495 -0.039197434 0.01865569 -0.21474181 -0.21151613
-0.04184982 0.024787601 -0.29891762 -0.053261817 -0.046787962 -0.047260653 -0.37285265 0.07803474
-0.06407636 -0.045941196 0.12335277 0.07638347 -0.0006106308 -0.08604818 0.012187279 -0.11988129
0.14140213 -0.024723615 0.045381047 0.102517955 -0.08977064 -0.21612698 0.058730293 -0.22264217
-0.0015491311 0.21591942 -0.15454143 -0.19939019 0.14148712 -0.06374464 -0.21994385 0.08584081
0.050218794 0.07621351 -0.07730547 -0.27479282 0.013681978 -0.3194679 -0.18199064 -0.24931675
0.025758566 -0.07285184 -0.10781139 0.02410217 -0.22048444 0.11854657 -0.044228826 -0.20634739
0.0308226 0.16790947 0.038816683 0.058637533 -0.021786373 -0.042037293 0.16437696 -0.031165628
-0.0385179 0.016851194 0.1985204 -0.16088259 -0.27075392 0.0019882252 -0.023797447 -0.139003
-0.086869 -0.07584083 -0.03885068 0.007336445 0.010016708 0.010636344 -0.0033502537 -0.037433933
0.051562816 -0.120759964 0.079526 -0.16870253 -0.108098075 -0.26985407 -0.23509398 0.08564117
-0.15271954 -0.23211086 -0.03567651 -0.18040332 -0.08596798 -0.060713433 -0.25287345 -0.14021829
-0.1439615 -0.037120696 -0.23251754 -0.15381148 -0.05404069 -0.031251796 -0.11579777 0.12318924
0.13018085 0.07681351 -0.16834699 -0.11948396 0.07295426 0.05213023 -0.0942454 -0.13914971
-0.23584941 -0.05935183 -0.09390105 0.12870587 -0.16416942 0.10024322 -0.14669928 -0.068562746
-0.013676646 -0.29033715 -0.055647716 -0.12995021 0.079294264 0.08446679 -0.06038949 -0.15930906
0.013286061 0.07237815 -0.04999709 -0.3002399 -0.09946549 0.033068206 -0.04796585 -0.15599583
-0.12218823 0.1246436 -0.0075788386 0.07803154 -0.21875988 -0.0011075884 0.09509719 -0.13225134
-0.1132651 -0.034346115 -0.1287113 -0.048740424 -0.19870734 -0.018377127 -0.00051471783 -0.010062756
0.06725122 0.004177763 0.17582452 -0.19853179 0.05598372 -0.11349171 -0.030484825 0.1337694
-0.27328053 -0.06010054 -0.025873112 -0.29110524 0.0048763193 0.047385838 -0.07569125 -0.09852757
-0.08344003 -0.024844423 0.119051754 -0.040198788 0.17528163 -0.14065246 -0.05234484 -0.045282505
-0.0066908803 -0.07359283 0.13040318 0.14387804 0.0011249451 -0.18977149 -0.040881656 -0.09253534
0.14428617 -0.036841404 -0.10434593 -0.015523352 0.06943092 0.06773345 -0.3752411 -0.057511155
0.1137463 -0.07288887 -0.21959746 -0.15416598 0.1254909 -0.24190652 -0.2703994 0.18339911

2.weight f4 [128, 256]
00000000: 8f96 a1bd f6f1 b1bd d793 783d 8150 45ba
00000010: 501a 30bd 8c9b 9a3d 4828 86bd ed9d 52bd
00000020: 928e 0c3e 1603 3abe a696 6a3e f35c e53d
00000030: 0c1a 1d3d f52b 8b3e c499 893e 4094 6d3e
00000040: 9c7d 823e fe0f 85bd 0ece 053f 109c a13e
00000050: 19cb 6e3e cb01 de3e d296 d03d b634 383e
00000060: 5481 4e3e ad63 bfbd 6a4e 443b 430a babd
00000070: 8a69 e83d d850 e1bc 52ba c93e d1fc 5fbe
00000080: 0e27 523d 6ed9 333f baa3 113f a97b 6d3e
00000090: 042b 1fbe ea17 823e 8c6f 66bd bc83 0d3e
000000a0: fe8c eb3e 595d 1b3e 9822 863d be87 1abe
000000b0: af39 d43e c322 833e cba5 e5bd 6ab1 aebd
000000c0: c638 a53c 42f5 67be 62c5 7c3e 3f18 d23d
000000d0: ef6b fc3d 0de7 423e 51c6 70bd 119c 2dbe
000000e0: 1260 8e3e 283b a2bd b121 9e3e efdd 43be
000000f0: a19a 363f baf7 913e 65d6 c13e 4dd1 143e
00000100: 0bd5 e83d b877 65bd cae2 803e 6642 b5bd
00000110: e638 0a3d cb93 443e 269b a63e d5cd 753e
00000120: 6e6f d03c e1cd 533e 4273 cabd a7a9 3cbe
00000130: 50ce 243d 7617 d2bd 533b 67bb 12d0 e33e
00000140: d49e bcbc 2014 8fbe 07c9 40bd e134 3a3c
00000150: d27c 0dbe 24a7 893e 6ca0 5dbd 3b16 303f
00000160: 476c 253e 7d9c 64bc ba02 80bd 7871 a73e
00000170: 9c3f 033e d58f 4c3e 238c 153e d829 243e
00000180: 2026 34be e4b7 52be f376 9d3e fc8f b43d
00000190: 1b2f 5dbe 6936 cf3d 1300 9f3e c71d d03e
000001a0: 3444 7b3e ae62 033c bef7 db3d 7bdb aabd
000001b0: 7240 923e 04b7 493d 7a3a 72bc af72 843d
000001c0: b287 15be 0f87 5ebe df5e d1bd 3bbe 80be
000001d0: 0e26 a03d 8782 69bd 4cbc 03be ef80 cf3e
000001e0: e18b 813e 15ec a93d 4a74 29be 7ea2 d13e
000001f0: 3212 b23e 9ad4 983e ef03 f03e 8a7f c9be
00000200: d41a f6bd 37bf f0bd 5aec eabd 75f7 0cbd
00000210: 14a6 c43d 133b 39be e98d a2bd 30d3 723c
00000220: 0808 603e 7f4a ddbd 5094 8c3d cce7 413e
00000230: acb6 9d3e 773f 9d3e a21c 063e 15e0 e93d
00000240: e92f be3d 966b 283f 2532 e4bc 3348 0e3f
00000250: e8ab 17bd 3d76 da3e ca40 d03e 8276 8abd
00000260: 418a bc3d 1c39 a1bd 353c 5d3e 2df8 76be
00000270: 92a5 4ebe c3c3 1a3e 6da7 9b3e ff00 f0bd
00000280: ef6a 063e 64f4 b8bc 7e6d 343e 1d93 5fbe
00000290: 528b 2abe ef25 613c 102d 213e 3885 b1bc
000002a0: 4c10 893e d14f 1d3f 2265 243d de6f abbc
000002b0: 04ca 48bc f17b 853e dcf0 ba3e cc2a 553e
000002c0: 598f a63d 7f60 8d3e 5847 93bd 180b 663e
000002d0: 5a27 333d a0f5 d93d 7304 8bbe 859e 4bbe
000002e0: 3c77 843b 89d3 a3bd 6473 143d d4c2 7b3e
000002f0: bbd3 973d d59f 40be 5bc2 1a3e fc44 a73d
00000300: f442 a83c aae5 20be c14b 9a3c e67c 343e
00000310: 7e06 ec3d c45f c4bd ba1b 1dbe af30 763e
00000320: 066d 903d 27b1 87be 52b8 b53e e96a 363e
00000330: 493a 233f 66d9 4a3d 67c9 283d 8263 ffbc
00000340: 3a73 ee3d 011e e8bc 30d2 acbd e617 cc3e
00000350: 0f81 fcbd c7d7 0f3e 3b21 3abe 5a1a 80be
00000360: c921 9a3e ee0e bcba b5a3 31be 270b 1a3e
00000370: 980b 64be afd5 7fbd 5fa8 123e 7cf9 ef3d
00000380: eb5e 213f 6c7b 973e 8f5c a6bd 35ee 7c3d
00000390: 9cfa abbd 805a 8abd 89b3 2d3e b150 2cbe
000003a0: defd 8abe 3713 56be bff0 9b3d d889 61be
000003b0: d1dd 623e dcfb 503d 90ff 0abe f4f1 cd3d
000003c0: 50f0 cabd 2db7 6e3d 723c 903e 4d89 9c3d
000003d0: c5b9 01bd 4f99 a53d 6410 743e 4b7e 163e
000003e0: f5e4 b33c 6080 ab3e efc6 a83e b734 7e3d
000003f0: c9d7 44be 48f5 4c3e 0466 e73d d673 61be
-0.07890045 -0.086887285 0.060687866 -0.00075269496 -0.042993844 0.075491995 -0.06550652 -0.05142014
0.13726261 -0.1816524 0.2290903 0.11199369 0.03835492 0.27181974 0.26875126 0.23201084
0.25486457 -0.06497191 0.5226754 0.3156438 0.23319663 0.43360743 0.10185017 0.17988858
0.20166522 -0.093451835 0.0029953965 -0.090839885 0.11348255 -0.02750437 0.39399964 -0.21873786
0.051306777 0.70253646 0.5689045 0.23191704 -0.15543753 0.2540887 -0.056258723 0.13819784
0.46006006 0.15172328 0.06549567 -0.15090844 0.4145026 0.2561246 -0.11213263 -0.08529933
0.020168673 -0.22652152 0.2468467 0.10258531 0.12325274 0.19033451 -0.05878288 -0.16954066
0.2780767 -0.079214394 0.3088508 -0.1912763 0.71329695 0.28509313 0.37858883 0.14532967
0.1136876 -0.056022376 0.25173026 -0.08850555 0.03374567 0.19197004 0.32540244 0.240043
0.025443759 0.20684005 -0.09885265 -0.18424092 0.040235817 -0.10258381 -0.0035283163 0.44494683
-0.023024954 -0.27945042 -0.047066715 0.011365146 -0.13817146 0.2688533 -0.05410807 0.6878392
0.16154586 -0.013953325 -0.0625052 0.32703757 0.12817234 0.19976743 0.14604239 0.16031587
-0.17592669 -0.20577961 0.30754814 0.08816525 -0.216 0.101178 0.31054744 0.40647718
0.24537736 0.008019133 0.107406124 -0.08342644 0.28564793 0.049246803 -0.01478445 0.06467187
-0.14602545 -0.21731208 -0.10223173 -0.25145134 0.07819758 -0.057009246 -0.12864798 0.40528056
0.25302032 0.08296982 -0.16548267 0.40944284 0.34779507 0.29849702 0.46878 -0.39355117
-0.12016836 -0.11755221 -0.11470862 -0.03441568 0.096019894 -0.18088941 -0.079372235 0.014820859
0.21878064 -0.108052246 0.06864226 0.1893608 0.3080343 0.30712482 0.1309686 0.114196934
0.09286482 0.65789163 -0.027855942 0.5557892 -0.037029177 0.42668334 0.4067443 -0.06760885
0.09206057 -0.07872221 0.21604998 -0.24118109 -0.20180348 0.1511374 0.30401173 -0.1171894
0.1312673 -0.022577472 0.17619893 -0.21833463 -0.16654709 0.013741954 0.15739846 -0.021669969
0.26770246 0.61449915 0.04013551 -0.020927366 -0.0122551955 0.26071122 0.36511886 0.20817107
0.0813281 0.27612683 -0.07191342 0.2246517 0.0437387 0.106425524 -0.27151832 -0.19884689
0.004042534 -0.079993315 0.036242858 0.2458604 0.07413431 -0.18810971 0.15113203 0.081674546
0.020539738 -0.1571261 0.01883495 0.1762577 0.11524676 -0.09588578 -0.15342608 0.24042009
0.070520446 -0.26502344 0.35492188 0.1781422 0.6376081 0.049523734 0.041207697 -0.031175379
0.116430715 -0.02833462 -0.084385276 0.39861983 -0.123293035 0.14047156 -0.18176739 -0.25020105
0.301039 -0.0014347711 -0.17347606 0.15043317 -0.22270048 -0.062459644 0.14322041 0.11717507
0.6303546 0.2958635 -0.08123123 0.06175061 -0.08397409 -0.06755543 0.16963018 -0.16827656
-0.2714681 -0.20905767 0.07614278 -0.2202524 0.22154929 0.05102144 -0.13574052 0.100559145
-0.09909117 0.05828016 0.28171116 0.076433755 -0.031671304 0.08085882 0.23834378 0.14696614
0.021959761 0.3349638 0.32964274 0.06206199 -0.1922294 0.20015442 0.11298755 -0.22016844

2.bias f4 [128]
00000000: da6c 67bd d559 cfbd 7d81 85bc e72f 623b
00000010: 0266 71bd db20 043e d78d 3abd 73e3 e93d
00000020: 8a35 b93d 0de5 0cbd cbec c13d 4775 65bb
00000030: 5fc6 953d e897 a73d 70ed cabd 7f14 d4bd
00000040: 67ab 953c efed c83c e601 23be 1699 b3bd
00000050: 5f5e 293e 138c 64bd 908f 953b 3427 4abd
00000060: a567 4d3d e8d8 77bd 73db 90bc ee9d c0bb
00000070: 40ee dc3d f37f 86bc 652f 0abd 4c71 023e
00000080: c149 8fbd 440d aebd bf0f dcbd 8527 1cbd
00000090: f8a4 06bd 36c3 e4bd 90db bebc 1413 73bc
000000a0: c98a f3bd 51f3 65bd daf9 203e c718 27bd
000000b0: 1bf1 44bd 25e0 90bd a950 1e3e c281 0b3e
000000c0: c2eb 85bd 92ea c53d 7a60 9fbd bf7c acbd
000000d0: 38b9 e8bd 1646 58bd d92c 69bd 4d29 e8bd
000000e0: 5610 e7bc d862 5ebd 241c 453d 82a4 213e
000000f0: 40fd f83c 58c6 e53c ef5b 4d3d a8a3 85bd
00000100: a507 b33d 5152 583d d760 e1bd 6628 89bc
00000110: c865 d83d 889f 61bd fd58 473c de13 a7bc
00000120: 7f99 a13d 6a74 373d 3877 df3d 688c 17bd
00000130: 717b 423e cfd5 3bbd a74a 93bc c3d5 16be
00000140: 3859 32bd 6869 503d 38d1 76bd a9df f1bd
00000150: 9728 76bb 0970 08bd f0e8 a4bd 31b6 ffbd
00000160: 3e1e 8bbd 8273 d63d 6b40 873d 7c53 403d
00000170: 4178 083d ee12 b1bd f12d 18bd a8c4 88bd
00000180: 7316 9b3d 8ab0 0ebd 3194 1dbd bccc a1bc
00000190: 9dbe 793d b98d 71bc 0257 06bd c2bc 18bb
000001a0: 4925 d53d cc3c 40bd 71ab 93bd 48a9 093e
000001b0: 8c1d 623c d7fc d6bd 10aa c73c 6e5d e2bc
000001c0: c81f b53d a0f3 89bd 6c8f 26bd adab d4bd
000001d0: 4589 5bbc f70c 4d3d c107 dc3d b104 6e3d
000001e0: 91cd 94bd 57fa fcbc 11d0 a0bd 02e3 bbbd
000001f0: a22c 8e3d cd83 a4bd ef3f 4a3d 314f 2d3d
-0.056500293 -0.10124556 -0.016297096 0.0034513415 -0.058935173 0.12903158 -0.045545425 0.114203356
0.09043415 -0.034398127 0.09468993 -0.003501253 0.07313227 0.08183271 -0.09908569 -0.10355472
0.018270208 0.024527518 -0.15918693 -0.08769433 0.16539906 -0.055797648 0.004564233 -0.049353793
0.05014767 -0.060509592 -0.017682767 -0.0058782017 0.1078763 -0.016418433 -0.033736605 0.12738532
-0.06996489 -0.08498624 -0.10745191 -0.038123626 -0.03287217 -0.11170046 -0.023298055 -0.014836092
-0.118917055 -0.056140248 0.15720311 -0.040795114 -0.0480815 -0.07074002 0.15460457 0.13623717
-0.06539108 0.09663881 -0.07782073 -0.08422231 -0.11363453 -0.052801214 -0.056927536 -0.113360025
-0.028206032 -0.054293483 0.04812254 0.15785411 0.030394197 0.02804868 0.050136503 -0.065253556
0.087416925 0.052812878 -0.11004799 -0.016742896 0.10566288 -0.05508378 0.012167213 -0.020395216
0.07890605 0.044788755 0.10911411 -0.036999136 0.18992402 -0.0458582 -0.017979933 -0.14729981
-0.043542117 0.050881773 -0.06025812 -0.11810238 -0.0037560815 -0.03330997 -0.08052242 -0.12485922
-0.067928776 0.1047125 0.066040836 0.046954617 0.033317808 -0.08646189 -0.03715319 -0.06678134
0.07572641 -0.03483633 -0.038471404 -0.019750945 0.0609728 -0.014743262 -0.03279782 -0.0023305868
0.10407502 -0.04693298 -0.07210434 0.13443482 0.01380099 -0.10497444 0.024373084 -0.027632441
0.088439524 -0.06735921 -0.04066412 -0.10384307 -0.013399427 0.050061192 0.107436664 0.058109943
-0.07265771 -0.03088109 -0.078521855 -0.09174158 0.06942107 -0.080329515 0.049377378 0.04231185

4.weight f4 [12, 128]
00000000: c49e 6f3f 6bf1 2e3f e42b c2bd 590c 6abe
00000010: 0075 cfbe f0b7 89be 223f 51bd a40d a03d
00000020: fada 34be 705d 073f be66 3abe 8cb8 74be
00000030: fea6 bdbe 8c17 6abe ae67 0b3f 5b6c 133f
00000040: 0954 eb3e 2a0b 5d3e 78af 543f 71ac 0c3f
00000050: 4884 83be 53b5 1c3f f766 80be b2af 57bc
00000060: 4f46 adbe eb3b 023f 2c6d 333f 273e b7bd
00000070: 8976 a8bf b230 7a3e c0fc 423d 5665 85be
00000080: 1ce9 ce3e 131e 3e3f 1ddd 523f f108 b03e
00000090: 06c8 9e3e e0d7 0d3f b80d 163e e41d 113f
000000a0: d0b4 de3e 52f8 2b3f d3bb 3bbe 166f 26be
000000b0: ef77 5b3d 38a0 423f c71e 95be 3472 8bbe
000000c0: e345 ef3d 703c afbe d58f e33e 66d6 223f
000000d0: 19d7 493f eaf3 1e3f 1f32 183c df4f fc3e
000000e0: dbe7 a03e 5407 3c3f 89fd 7ebe 5915 2bbe
000000f0: bd95 c5be e6a5 c9be f3d7 fdbd 750e 6d3f
00000100: ee4d 49be 4acc 31be b07d a53e f6d1 d93d
00000110: 89e2 91be 1e05 f03e 720f afbe c437 41bd
00000120: e4f0 3dbe 9703 60bf 44d3 99be 4d31 9cbe
00000130: ad40 89be 2303 0b3f 3a37 96be 5761 863f
00000140: 9247 063f 1d70 d4be ba67 fb3e 53d3 493f
00000150: ddd8 fe3e 76a1 21bd 8039 063f 2087 fd3e
00000160: 6dac 1a3f 5092 37be a3c0 483e c995 7ebe
00000170: 0db8 fcbe 6eed 593f c4c4 c33e 951b 3f3f
00000180: b792 8cbe d9c7 b63e 05db 863e 25fb c9be
00000190: 9d6d 0abe 3104 263f 2a8a 4ebe 9fb6 d63e
000001a0: fef5 8ebe 746f 173f 1754 4dbe 10ba 64bf
000001b0: 8591 cbbe d7e4 003f 0815 b8be 0084 06bd
000001c0: 31bc 0fbe 3136 1a3f fe01 e93e 01fa 023f
000001d0: b42f 133f 0c16 2e3e b7d4 77be c512 46be
000001e0: d5d5 253f 0caf 1f3f 1902 0c3d 06b6 523f
000001f0: 5d14 67be e1ee 383f aea1 9dbe 700f 12bf
00000200: 0ee3 663f c411 2e3f 18c9 52be 9c3b 74be
00000210: 3832 a1be 6920 79be 8496 47be cf9c 733d
00000220: d9e0 05be d5db 893e 4393 36be 3533 f43e
00000230: efcb a63c aa3c 62be 8616 173f bd27 143f
00000240: 825d 173e ef4c 083e 899b 343f 4afe 0a3f
00000250: 05c9 42be 3752 113f 2543 39be 40fd 42be
00000260: 6d58 93be bfa0 d53e 5084 153f 52c2 94bd
00000270: 8b32 943e 0fe4 7d3e 0646 9abb be6e 5ebe
00000280: ddb6 a73e c1d1 1d3f 01d7 ba3f db8f 763e
00000290: a7ac 7f3e a6c4 253f 05d9 85be 6865 0a3f
000002a0: 000e f63e 0788 313f 11ae a1be ec20 ecbd
000002b0: 6643 0dbe a5b4 443f 7d70 71be 37d4 a8be
000002c0: 2506 60be f2be 05be e35a ea3e eee1 133f
000002d0: 27eb 2a3f d69a 283f 19b0 9fbd 8d41 843b
000002e0: b5e6 7a3e 9074 503f 5efe 95be 59a6 f0bd
000002f0: 8592 f3bd de6e 86be 3d0b f7bd 867f 533f
00000300: 6cab 6cbe 11e7 0cbe 069c c73e 24ea 9e3d
00000310: c7c6 8dbe 57c4 e13e 3c0c a3be 0d84 f83b
00000320: 4424 75be 7182 a4be ee68 8dbe 0def a7be
00000330: 67dd 70be be9d e93e bd0f 9dbd 64b3 823f
00000340: 830a e43e 5f4f 5cbe 2e33 003f a68a 213f
00000350: 7bbb e53e d39a cc3c 76e9 013f 6572 fe3e
00000360: 8084 f43e f854 96bd af85 4b3e 328b 39bd
00000370: f0e7 7ebd 2edd 4b3f e970 c23e 0729 393f
00000380: 3d07 63be 020f aa3e 2535 7c3e 0829 ccbd
00000390: 7dbe 183d 9362 253f 91af a73d bea7 d83e
000003a0: c4dc 8dbe 76ff 083f 62ba 8cbe 94e9 723e
000003b0: faf2 d9bd 18ee 203f 9ed6 2a3d 8979 a43d
000003c0: f116 6dbe c1ca 0f3f 48ea dc3e 0866 1a3f
000003d0: 5890 113f 702f d6bb 7187 0d3c 2ca3 0abe
000003e0: 6a9c 0a3f 0f0b 123f f879 1e3e b965 353f
000003f0: 70b5 63be 56c4 333f 2185 6fbe 9ded bb3d
0.9360163 0.68337125 -0.09481028 -0.22856273 -0.4051895 -0.26898146 -0.0510856 0.07815102
-0.17661658 0.5287695 -0.18203256 -0.23898524 -0.37041467 -0.22860545 0.5445508 0.5758721
0.4596255 0.2158629 0.83080244 0.54950625 -0.2568686 0.6121418 -0.25078556 -0.013164448
-0.33842704 0.5087268 0.7008846 -0.089474015 -1.3161174 0.24432638 0.047604322 -0.26053876
0.40412223 0.7426464 0.8236864 0.34381822 0.3101198 0.55407524 0.14653671 0.56686234
0.43497324 0.6717578 -0.18333368 -0.16253313 0.053581174 0.76025724 -0.29125044 -0.27235568
0.11683252 -0.34225798 0.44445673 0.63608396 0.7884384 0.62090933 0.009289294 0.49279687
0.31426892 0.7344868 -0.24901403 -0.16707362 -0.38590804 -0.39384383 -0.12394705 0.92600185
-0.19658634 -0.17363086 0.32322454 0.1063575 -0.28493145 0.46878904 -0.3419147 -0.047172323
-0.18548924 -0.8750548 -0.30043995 -0.30506364 -0.26807156 0.5430166 -0.2933901 1.0498456
0.5245296 -0.41491786 0.49102575 0.7883808 0.4977483 -0.03946062 0.5243149 0.49517155
0.6041935 -0.17926908 0.19604735 -0.24861826 -0.4935917 0.85127914 0.38236058 0.7465146
-0.27455685 0.35699347 0.26338974 -0.3944942 -0.13518377 0.64850146 -0.20169893 0.41936204
-0.27922052 0.5915444 -0.20051609 -0.8934641 -0.3975946 0.5034918 -0.35953546 -0.03284073
-0.14036633 0.6023894 0.45509332 0.51162726 0.57494664 0.17000598 -0.24202238 -0.19343098
0.64779407 0.62376475 0.034181688 0.82308996 -0.22566362 0.722395 -0.30787414 -0.57054806
0.9019021 0.6799586 -0.20584524 -0.23850864 -0.31483626 -0.2432877 -0.19491011 0.059475716
-0.13074054 0.2692553 -0.17829613 0.47695318 0.020360915 -0.22093454 0.59018743 0.57873136
0.14781764 0.13310598 0.7054983 0.54294264 -0.19021995 0.56766075 -0.1809202 -0.1904192
-0.287784 0.41724202 0.5840502 -0.07263626 0.2894481 0.24794029 -0.0047080545 -0.21721932
0.327567 0.61648184 1.4596864 0.24078314 0.24968205 0.64753187 -0.26142135 0.54060984
0.48057556 0.69348186 -0.31578115 -0.11529717 -0.13795242 0.7683814 -0.23578067 -0.32974407
-0.21877344 -0.13061121 0.45772466 0.57766616 0.66765064 0.6586126 -0.0779726 0.0040361346
0.2450207 0.8142786 -0.2929563 -0.11750478 -0.11893181 -0.2625646 -0.120626904 0.8261646
-0.23112267 -0.1376002 0.38986224 0.077595025 -0.27690718 0.44095108 -0.31845272 0.007584101
-0.23939615 -0.3213077 -0.27619117 -0.3279957 -0.23521958 0.4562816 -0.076690175 1.0210996
0.4453927 -0.21514653 0.50078094 0.63102186 0.448696 0.02497617 0.5074686 0.4969665
0.4775734 -0.07340425 0.19875215 -0.045298763 -0.06223291 0.7963437 0.3797677 0.7232823
-0.2217073 0.33214575 0.24629648 -0.099687636 0.03729104 0.6460354 0.081877835 0.42315477
-0.27707493 0.535148 -0.2748595 0.23721915 -0.10642047 0.628633 0.04170858 0.080309935
-0.23153283 0.5616875 0.43147492 0.6031194 0.56860876 -0.0065364167 0.008638249 -0.13538808
0.5414492 0.57048124 0.15476215 0.7085834 -0.22237182 0.7022146 -0.23390628 0.091761805

4.bias f4 [12]
00000000: 1a6e 333d 619a 1cbc fc29 c7bc 02d8 aebd
00000010: 760d 08be 5a96 773c c48c 63bd 0fa9 95bd
00000020: 3335 ecbd 91b9 553e 8cc0 f6bc 8cc0 f6bc
0.043806173 -0.009558291 -0.024312012 -0.08537294 -0.13286385 0.01511153 -0.055554166 -0.07307636
-0.115335844 0.20871569 -0.03012111 -0.03012111
