model/distq.pt (torch, 179039 bytes, 6 tensors)

0.weight f4 [256, 37]
000000 c7 68 3e be 64 2f 90 bd 44 94 50 be 57 eb dc 3d
       -0.18594657 -0.07040289 -0.20369059 0.10787075
000010 65 c7 cc 3d fe a9 a6 3b 5e 33 2f bd 45 be ec bc
       0.09998969 0.0050861826 -0.042773597 -0.028899321
000020 8e 8b 64 bd 61 b3 47 3d 82 b8 e6 3d 40 bc 5f bd
       -0.055797152 0.048755053 0.11265661 -0.05462289
000030 35 95 43 3d ac 54 06 3e 83 8d e7 3d b9 bf 13 3e
       0.047749717 0.13118237 0.11306288 0.14428605
000040 01 02 5d bc 40 e1 b3 3d ea 89 01 bc 4a 1e 89 bd
       -0.013489247 0.087831974 -0.007906416 -0.0669523
000050 6c 1e 7c 3d 9a 9c 1d bd 1c 24 15 3e 6b a6 70 3e
       0.06155245 -0.038479425 0.14564556 0.23500983
000060 e4 f6 d0 3d 7d f1 70 bd ed 4b 00 3e 9c da 03 be
       0.10203341 -0.05882405 0.12528963 -0.12876362
000070 b9 55 b5 3d 86 57 00 00 c0 17 0c be 04 7c 07 80
       0.08854241 3.1397e-41 -0.13680935 -6.87337e-40
000080 20 d9 2b bd 92 6c aa 3c c3 54 b1 3d 4c 16 df bc
       -0.041955113 0.020803723 0.08658745 -0.027232312
000090 5b 25 fb 3b 03 1f 19 3c 88 7b 42 3d f9 2b f9 bc
       0.007664365 0.009345773 0.04748109 -0.030416476
0000a0 4d dc 4c 3b 16 c7 cb bc 57 74 51 3d 8d fc 9c bd
       0.003125924 -0.024875205 0.05113634 -0.07665358
0000b0 dc 5d 30 bc 9f 33 09 3d 2a 49 9b bc 33 5d 68 3d
       -0.010764565 0.033496495 -0.018955786 0.056729507
0000c0 50 e1 23 bd 8d e2 cf bb 65 47 69 3d d6 f7 8e bd
       -0.040009797 -0.0063441456 0.056952853 -0.06980865
0000d0 26 6a bd be 34 16 ef bd 13 7d fc 3b 38 7e c4 3d
       -0.36995047 -0.11674157 0.0077053397 0.09594387
0000e0 e0 a8 53 bc 1c f2 f3 bb 9d cf 82 3d be ba e3 bb
       -0.012918681 -0.007444633 0.06387255 -0.0069497516
0000f0 6d dc e4 bb 3c 13 8f 3d c7 df ee 3c aa 7f 5f bd
       -0.0069842846 0.069860905 0.02915944 -0.05456511
000100 c6 22 58 3d 2d 43 37 3e bf a5 07 80 d9 d8 a1 3d
       0.052767538 0.1789672 -7.02307e-40 0.079026885
000110 ef f0 01 80 3d a0 54 bd 3c 81 f0 bd 5c 01 f0 bc
       -1.78266e-40 -0.051910628 -0.117433995 -0.029297523
000120 32 8f 14 bd b6 5a 08 3e 02 53 4c bc 33 47 9f be
       -0.036269374 0.13315853 -0.0124709625 -0.31109008
000130 c6 97 8b 3d 68 94 14 3d 04 83 36 bd d9 96 84 3d
       0.06816058 0.036274344 -0.04455854 0.064740844
000140 0f e2 cf 3d ce 6c 01 be 76 cd 46 bb 63 2f b9 3d
       0.10150539 -0.12639162 -0.0030334867 0.090422414
000150 b1 6b 67 3d 62 c5 89 3b 8f 23 c1 bd 4b 2d 9f 3d
       0.056499187 0.004204438 -0.094306104 0.07772311
000160 5e d7 85 bc c3 f4 a3 bd fa 2f 02 bd 66 39 9b 3c
       -0.016338047 -0.08005669 -0.031784035 0.018948268
000170 f1 b2 7d bd 4d ae bc bd 95 27 db 3d 4c 58 ff bd
       -0.06193823 -0.09212933 0.10700909 -0.12468013
000180 2e de 5d 3c cb 0e 84 3e cb e9 a0 3d ee 2c 21 3c
       0.013541741 0.25792536 0.078570925 0.009837372
000190 2d fe a4 bd ef c2 a2 3d 43 db da bd c7 f0 05 00
       -0.08056293 0.07947337 -0.10686352 5.45552e-40
0001a0 05 04 a4 bd c0 36 06 80 a1 23 86 3e e0 a6 0a bd
       -0.08008579 -5.70654e-40 0.26199058 -0.03385055
0001b0 92 3b cd 3d f9 12 d6 bc d4 1a 15 bd 32 18 53 3d
       0.10021128 -0.026132094 -0.03640254 0.051536746
0001c0 59 69 46 be bf 84 9f bd b4 5b 80 3c e0 75 f1 3d
       -0.19376124 -0.07788991 0.015668727 0.11790061
0001d0 2a 61 9d bd b8 6d 21 be 79 f8 01 bd 43 ad 21 3d
       -0.07684548 -0.1576451 -0.031731103 0.039471876
0001e0 bc 47 e7 bc 3c 98 6d bd a8 35 34 bd d3 59 87 bc
       -0.028232448 -0.05800651 -0.043996483 -0.016522324
0001f0 3c c9 16 bd d6 2d 54 bd c4 a5 0b bd 7b a9 a3 3c
       -0.036813006 -0.051801525 -0.034093633 0.019978276
000200 a1 8b 9f 3c 6d c2 f0 3d b9 94 9a 3d 93 31 8c 3d
       0.01947576 0.11755834 0.07547898 0.06845393
000210 09 10 ab bd 91 47 2f 3e 8c bc 4e be a9 f1 bf bd
       -0.08352668 0.17117144 -0.20189112 -0.09372265
000220 ec 86 f5 bd fd 5e 46 bd 46 60 d8 3c 44 f1 00 3e
       -0.11988625 -0.04843043 0.026413094 0.12592036
000230 e2 f9 02 00 ba b3 30 bc ce 60 04 80 19 80 e0 3e
       2.73312e-40 -0.010785038 -4.02069e-40 0.4384773
000240 2d 7d ac bd a8 bf 03 bc 87 3d f3 3d 1c fd be 3e
       -0.08422313 -0.0080413 0.1187697 0.37302482
000250 bb 71 85 3d d5 ad 22 3e e6 08 32 be da d0 e2 bb
       0.06515833 0.15886624 -0.17386207 -0.0069218697
000260 f5 7f 14 3d c9 5f 80 3d 78 63 aa 3b 23 4f 0b 3d
       0.03625484 0.062682696 0.005199846 0.034011018
000270 d8 10 7b 3e 06 e6 42 3e 2f 27 91 3d 91 01 aa bc
       0.24518144 0.1903306 0.07087552 -0.0207527
000280 e2 22 57 3d 9b 85 8e bd d5 a9 92 be df a5 10 3e
       0.0525235 -0.06959077 -0.28645197 0.14125775
000290 8f 3d bc 3d 39 ab 15 3d 0c 67 a2 3d 84 1e 05 bc
       0.09191429 0.036540244 0.07929811 -0.008124951
0002a0 5c 35 c5 3d 60 10 07 be 9b 11 0a 3d 31 13 90 bd
       0.09629318 -0.1318984 0.033708196 -0.070349105
0002b0 95 3b f1 bd fa 84 aa 3d 92 f3 e6 bc 44 0b 3f 3e
       -0.117789425 0.083261445 -0.028192315 0.18656641
0002c0 a9 44 fd bd 70 01 01 80 7a 68 60 be 96 1f 06 80
       -0.123666115 -9.2351e-41 -0.21914855 -5.62344e-40
0002d0 55 b0 3e be 80 31 40 be 84 83 1b 3e a1 6d 4d 3d
       -0.18621953 -0.18768883 0.15186888 0.05015338
0002e0 9f 81 f2 3d d4 df 8d be f8 fd 36 3e dd 36 13 be
       0.118411295 -0.2770983 0.17870319 -0.14376397
0002f0 56 33 93 bc 10 88 0e 3d c6 22 53 3e 82 f6 21 be
       -0.017968815 0.034797728 0.20618734 -0.15816692
000300 d5 5f 4a be a0 ad 77 bd 4f 9a 9a bd b7 f7 08 be
       -0.1976312 -0.060468316 -0.07548963 -0.13375746
000310 ca 0d 97 3d b1 38 0e be 30 14 8e 3d a6 37 2e 3d
       0.07375677 -0.13888814 0.06937444 0.04253354
000320 5c c6 30 bd 15 eb ab bd 29 d1 05 3d f1 d0 0b bb
       -0.04315792 -0.08394448 0.032670174 -0.0021334256
000330 f3 45 a7 bd 4d 33 1e 3e ef e3 42 3d ea e8 3d be
       -0.08167639 0.15449257 0.047580656 -0.18545881
000340 ee 02 4c 3e a1 cb 7e bd 58 4c 25 3c 35 47 21 3e
       0.19922993 -0.062205914 0.010089003 0.1574982
000350 bb bb 0b 3e 9e f2 bf 3d f0 70 07 00 87 6d fa 3d
       0.13645832 0.093724474 6.83363e-40 0.12227922
000360 ce 4c 01 80 5e 80 6c bc f8 46 01 bd 35 e3 06 be
       -1.19388e-40 -0.014434902 -0.03156182 -0.1317261
000370 49 4e 9e 3d 23 f8 4c be 54 de 02 3e fd d9 cb bd
       0.077297755 -0.20016532 0.12780124 -0.09953687
000380 02 fe c8 3e 4d 25 9f ba cf 04 51 bd e2 dc 43 3d
       0.39256293 -0.0012141854 -0.051029976 0.047818072
000390 fa f2 49 3d 6b 84 d8 3b 3d ce 78 bc 47 08 31 3d
       0.049303986 0.0066075823 -0.01518589 0.043220785
0003a0 96 66 7e bb 4e 8e a8 bc ab 53 e9 3b 51 11 00 be
       -0.003881847 -0.020575669 0.0071205697 -0.12506606
0003b0 89 bd 0e 3e 55 41 ee be 14 90 67 3c 97 fc f2 39
       0.1393949 -0.4653422 0.014133472 0.0004634603
0003c0 b8 d6 af 3c 28 81 06 bd 63 5f 0e bc e1 8a 56 3a
       0.02146469 -0.032838017 -0.008689734 0.0008184147
0003d0 34 75 5c bb 1b d1 fc 3b b0 ff 9d 3b 93 91 d6 bc
       -0.0033639194 0.007715357 0.00482174 -0.026192462
0003e0 8b 00 2e 3d ac 28 bd bd 5e 63 5a 3e d6 d4 05 80
       0.042480987 -0.09236273 0.21326968 -5.35529e-40
0003f0 3f 5d 8e bd dc bb 05 00 e9 5f 1e bc 13 19 d8 3c
       -0.06951379 5.26569e-40 -0.009666421 0.026379144

0.bias f4 [256]
000000 24 bb 15 3e f6 72 1c be 88 27 f7 3d a1 ae c7 bc
       0.1462217 -0.15278229 0.12068087 -0.024375262
000010 b0 f4 15 be a0 38 b1 3d e0 17 ff 3d 98 2f 39 be
       -0.14644122 0.086533785 0.12455726 -0.18084562
000020 59 84 4f 3e 77 e9 62 3d 39 19 3d 3e c4 e2 79 3c
       0.2026533 0.05539843 0.18466653 0.015251819
000030 55 46 39 3d 97 6c 27 3c ed b3 99 bc f4 68 34 bc
       0.04523309 0.010218761 -0.018762553 -0.011011351
000040 78 a7 d5 bc 8c 51 1b be 57 f2 5b bd ec 3d de bd
       -0.026080832 -0.15167826 -0.05369791 -0.108516544
000050 5b e0 f5 bd c3 23 34 be 7f f9 13 bd 02 a2 0d ba
       -0.12005683 -0.17591767 -0.03612661 -0.0005402864
000060 16 a7 33 bd e1 d6 0e bd 0c 7b c2 bd 0e d9 08 bd
       -0.043860517 -0.034872893 -0.094961256 -0.033410124
000070 2c b9 81 bc fd 0e 27 bd 49 16 3b be a6 e6 40 3e
       -0.015835367 -0.04078578 -0.1827022 0.18837985
000080 69 59 f1 bd f5 2f 76 bd f9 e2 c0 bd 32 25 70 be
       -0.11784632 -0.06010433 -0.094182916 -0.23451689
000090 84 c6 62 bd 9e 23 86 3b 88 c4 94 bd 7b 7b a4 3d
       -0.0553651 0.0040936014 -0.07264048 0.080313645
0000a0 de 7b 93 be b4 a9 8d 3d 27 a2 c0 3c 53 85 9d 3e
       -0.2880544 0.06917134 0.02351482 0.3076578
0000b0 29 91 33 3e e6 88 b1 bd 32 d7 5a be 4e 97 a0 bc
       0.17535843 -0.086686894 -0.21371153 -0.019603398
0000c0 e1 d4 f1 3d 44 06 cb 3d ed 18 7b bd a7 96 db bd
       0.118081816 0.099133044 -0.061303068 -0.10722094
0000d0 43 35 f7 3d f8 ca df 3d be e6 bb bc da 77 83 bc
       0.12070706 0.10927385 -0.022937175 -0.01604836
0000e0 2b c8 f8 bd 04 cc 01 3d 88 f1 61 bd cd f2 21 be
       -0.12147554 0.031688705 -0.055161983 -0.15815277
0000f0 d9 35 aa bc f7 21 fb 3d 24 fc ea bd d6 15 c9 3d
       -0.02077763 0.12262338 -0.11473873 0.09818618
000100 74 51 35 3e 7c 13 61 bd 76 7c 66 be e2 72 30 3d
       0.17706853 -0.054950222 -0.22508416 0.04307831
000110 1e f9 56 3e 87 a0 92 bd c8 fd bd 3c f2 a9 eb bd
       0.20993468 -0.071595244 0.023192301 -0.11507024
000120 54 d8 6f be b8 e3 3d 3e 8b 74 e0 bd 35 b9 33 3e
       -0.23422366 0.18543899 -0.10959729 0.1755112
000130 ed 8b 01 bd 9d 6a 01 bd a0 09 82 3d d6 87 3e bd
       -0.031627584 -0.031595815 0.06349492 -0.046516262
000140 6a 5c 1a 3e e5 43 8c 3d 4f 52 f2 bd 8c c1 8f be
       0.15074316 0.06848887 -0.11832105 -0.28077352
000150 45 e1 47 3d 42 c5 38 be 9a 88 28 bd fb 52 74 3d
       0.04879882 -0.18043998 -0.0411459 0.05964945
000160 99 6a 22 bd 76 4c 25 be 5a e8 26 be ac cf 89 bc
       -0.03965244 -0.16142449 -0.16299573 -0.016822658
000170 14 11 2a bd b0 b4 05 3e de 6e 4c bd 6e 09 df bd
       -0.041520193 0.13057208 -0.04991042 -0.108904704
000180 16 37 2d be d4 70 01 be 45 24 b5 3c bf 41 17 bd
       -0.16915545 -0.12640697 0.022112021 -0.036927935
000190 f8 0b af 3d 1a 87 4c 3e e0 c4 5e 3d 13 32 24 bc
       0.08547205 0.19973412 0.054386973 -0.010021704
0001a0 4d d2 e2 3d 5d e5 87 bc c0 d0 10 be 9e d4 43 3e
       0.11075268 -0.016588861 -0.14142132 0.19124076
0001b0 53 9c d9 bd 8c 67 9b bc d0 88 69 be 4e a9 da bd
       -0.106255196 -0.018970273 -0.22806096 -0.106768236
0001c0 8c 9c 51 be e3 6b e8 bd 19 91 00 be 26 72 42 bd
       -0.20469874 -0.11348703 -0.1255535 -0.04747214
0001d0 e7 7d da bd 82 96 0b 3d 50 6e bb 3c df 15 9f bd
       -0.10668545 0.034079082 0.02287975 -0.077678435
0001e0 fd bc 24 3c b0 82 b0 3d ff 0c 49 bd 01 e0 13 3e
       0.010054824 0.08618677 -0.04908466 0.1444092
0001f0 90 dd c7 bd 5e 73 d3 3d 91 e9 2d be 6a ab ed bd
       -0.097590566 0.10324739 -0.1698363 -0.1160496
000200 5d f1 c7 bd 0b 6d 4a bd 8a 47 6d be 42 aa 3f be
       -0.09762833 -0.049420398 -0.23171821 -0.18717292
000210 e6 3c 4c 3d e5 2a 64 3c 93 5e d5 3d 32 da 73 3d
       0.049862765 0.0139262425 0.10418429 0.05953426
000220 13 af 9d 3d 62 b9 7b 3d 8f 08 89 3d a9 1c 5b be
       0.076994084 0.06145609 0.066910855 -0.21397652
000230 61 58 69 bd 36 e9 e0 3d 2a 0e 1c bd b1 23 1e be
       -0.05696905 0.109819815 -0.038099445 -0.15443303
000240 d2 75 57 3e fe 6e 72 be cc d1 37 be 10 cb 12 be
       0.21041039 -0.23675153 -0.17951125 -0.14335275
000250 37 5f b0 bd ab 0e 8e be d8 3e 2f 3c 22 69 17 be
       -0.08611911 -0.27745566 0.010696135 -0.14786199
000260 54 8b 47 bd c9 65 3b be 6c 39 14 be 87 24 fd bc
       -0.048716858 -0.18300547 -0.1447503 -0.030901207
000270 e0 94 c6 3d 5e c3 aa bd 2c ca b3 3d e1 4e 00 3e
       0.096963644 -0.083380446 0.087787956 0.1253009
000280 55 5c 19 be fd 47 8d 3d 09 e5 28 3e d8 95 09 be
       -0.14976628 0.06898496 0.1649362 -0.13436067
000290 73 3d 40 be 0f 2a cf 3d 0e 19 97 3d 2f 30 1c be
       -0.18773441 0.10115444 0.07377826 -0.15252756
0002a0 1f 27 cf 3d 5b 67 62 be c5 a5 05 be bb 66 02 3e
       0.10114884 -0.2210974 -0.13051517 0.12734501
0002b0 f2 cf c4 bd 9e c1 b2 3d e3 ca 54 3d 64 a3 61 bd
       -0.09609975 0.08728336 0.0519513 -0.055087462
0002c0 d2 2f 7a bd cb 53 8c 3d b3 60 8a bd 42 76 f6 bc
       -0.06108076 0.0685192 -0.06756725 -0.030085687
0002d0 96 f8 59 be 3a 0d d8 3d 24 9e 0e 3e 26 74 e3 3d
       -0.21286234 0.10549398 0.13927513 0.11106138
0002e0 c1 c7 a2 3d ad a7 c0 bd 82 b6 37 bd ad f7 90 bc
       0.07948256 -0.094069816 -0.044851787 -0.017696226
0002f0 08 e2 5d bc 6f 29 0d bc 75 05 6c be d0 1f 11 bd
       -0.01354266 -0.008615836 -0.23048957 -0.03543073
000300 8c 5e 7a bd 51 89 2d 3e 3e c8 2f be 3d 71 f6 bd
       -0.061125323 0.16946913 -0.1716623 -0.12033317
000310 ea 4b c0 3d 46 12 e4 bd d4 5c 2b bc 54 26 a5 bd
       0.093894795 -0.11136298 -0.010459144 -0.08063951
000320 44 6e d5 bd b3 0c 67 3d ce e5 ee 3d 63 69 fb 3d
       -0.10421422 0.056408595 0.116649255 0.1227596
000330 bb be a1 3d c0 84 8a bd 01 89 1b 3c 65 bf 23 bd
       0.07897707 -0.06763601 0.0094931135 -0.03997745
000340 f0 10 4d bb de a9 1d bc 1b 6b b3 bd d9 a5 1c be
       -0.0031290613 -0.009623019 -0.08760663 -0.15297641
000350 b8 5b 02 3e e1 87 b4 3d 00 1c 35 3d f3 c8 54 3d
       0.127303 0.08814979 0.044216156 0.051949453
000360 bb 37 39 bd 28 6f 26 be 2e ab 37 3d 10 6d 27 bd
       -0.045219164 -0.1625334 0.044840984 -0.040875494
000370 fc 31 85 3d dc d8 80 bc c5 fa b2 3d 98 27 91 be
       0.065036744 -0.015728407 0.08739237 -0.2835052
000380 3b 87 9b ba 17 be c3 bd 91 23 de bc 2a b0 00 be
       -0.0011865863 -0.09557741 -0.027116569 -0.12567201
000390 fb 38 9d bd e1 02 4d 3d 06 84 47 3d 48 db 6d 3d
       -0.07676884 0.050051574 0.04870989 0.05807045
0003a0 64 e3 aa 3d 7d ca 56 be c0 84 01 3e 9d 5f cd 3d
       0.083441526 -0.2097568 0.12648296 0.100280024
0003b0 b3 02 f3 3c 64 d2 11 be cb b6 d6 3d 3c da 4a 3e
       0.029664373 -0.14240414 0.10484084 0.19809812
0003c0 44 86 86 bd e8 28 22 be 74 61 09 be 52 e4 df bc
       -0.06568578 -0.15835917 -0.13416082 -0.027330551
0003d0 b1 ed e1 3c 84 d8 dc bb 87 0b 02 be 3c 90 19 be
       0.02757916 -0.006739678 -0.1269971 -0.14996427
0003e0 ba 03 0e bd 32 c3 2f be 90 2d bb 3d 03 b6 78 bc
       -0.034671523 -0.17164305 0.0913955 -0.015180114
0003f0 91 e6 39 3e 9e 50 00 3d 6b 26 fd 3d 91 cf 50 be
       0.1815436 0.031326883 0.12360843 -0.2039168

2.weight f4 [128, 256]
000000 21 fd 69 bd c8 39 84 3d cc 23 01 bd db a1 1d 3d
       -0.05712617 0.064563334 -0.03152828 0.038484436
000010 70 61 01 bd e4 a3 4b bd 4a e9 10 3f 95 f4 cb bc
       -0.031587064 -0.049716845 0.5660597 -0.0248969
000020 64 12 a1 bd ae 5c 02 be bc 3f b4 bd e1 ec 4c 3e
       -0.07864836 -0.12730667 -0.08801219 0.20012237
000030 75 74 9d 3b c7 77 70 3c 8c 63 c7 3d 46 f5 ec bc
       0.0048051425 0.014676995 0.09735784 -0.02892555
000040 7d a7 7d 3c 2e 42 91 3d 23 45 18 bc ce aa ea 3c
       0.015481827 0.07092701 -0.009293827 0.0286459
000050 e6 4b 06 bd 4b 8d 80 3e c4 d9 ab bd ce e7 80 bd
       -0.032787226 0.25107798 -0.08391145 -0.06294213
000060 6f 67 02 3d 85 8f c3 3c 60 d9 3e bd 0c 12 c9 bc
       0.031836923 0.023872146 -0.046594024 -0.024544738
000070 e1 7a cf bc 6b 09 04 3f 51 c1 6a 3d e4 13 8b bd
       -0.025327148 0.5157687 0.057313267 -0.06790903
000080 39 ae 1a 3e bc 56 c4 bd 03 c2 00 bd e7 0b fd 3c
       0.15105523 -0.09586856 -0.031435024 0.030889465
000090 6b b6 8f 39 af 5e a4 bd 0e 17 52 3c 0a 48 19 bd
       0.00027410997 -0.08025872 0.0128228795 -0.037422217
0000a0 1a b0 a2 3e 74 91 25 3d e9 67 a9 bd 98 8e 02 3f
       0.3177498 0.040421918 -0.082717724 0.5099883
0000b0 10 ac aa b8 e3 ea f5 bc 2b 5d e6 3e 64 d4 09 3f
       -8.138281e-05 -0.03001923 0.44992957 0.5383971
0000c0 c9 d3 94 3d f6 43 a0 3b a7 35 94 bc 96 06 dc 3c
       0.07266957 0.004890914 -0.01809199 0.02685861
0000d0 69 cd 22 3c 84 42 d2 bb a5 96 01 3e 22 35 e9 3c
       0.009936669 -0.0064166207 0.12655123 0.028467719
0000e0 ba 4a 92 bd 04 fc 48 bd 27 bf 91 bc fb ca 4f 3e
       -0.07143159 -0.049068466 -0.017791344 0.20292275
0000f0 9d d2 91 bd 98 e3 e5 3c ce d2 4a 3c e6 4e 95 3c
       -0.071202494 0.028062627 0.012379361 0.018226098
000100 fd b4 67 3b 88 38 4f bc 55 bc 76 3e a0 d7 5b bd
       0.003535568 -0.012647755 0.2409528 -0.053672433
000110 ea 4a af bd f9 50 0e bb aa 65 47 3c 4c 76 ca 3d
       -0.085592106 -0.0021715744 0.012170235 0.098858446
000120 83 48 bd 3d 39 25 fb bc 84 3d 8f 3e 0f 66 88 bd
       0.09242346 -0.030657398 0.2797662 -0.06660091
000130 ca ab 03 3f 45 8e ca bc fb ad ac bd 3e 18 13 3e
       0.51434004 -0.024726043 -0.08431622 0.14364716
000140 5b ef c1 bc fd 66 be bd de 4a 97 bc 9f 14 e5 3d
       -0.023673704 -0.09296987 -0.018468317 0.11185574
000150 aa f7 e0 bd 01 a3 63 3e f5 63 1c bd 3d 53 13 3d
       -0.10984738 0.2223015 -0.038181264 0.035968054
000160 13 5a a1 bd 83 53 41 3d c4 28 fe bd cc 8b d9 bc
       -0.078785084 0.047198784 -0.12410119 -0.026555918
000170 e7 dc 9b 3a 7c b8 16 3d 2d 41 7e 3a 0a da 1e 3e
       0.0011891396 0.03679703 0.0009699043 0.15512863
000180 06 c0 39 3e 97 47 3b 3c 1a 7c 76 bd 31 09 ba bb
       0.18139657 0.011430643 -0.060176946 -0.005677365
000190 64 ed 9a bd 49 f8 b3 bd 9f cd 02 3a e5 53 34 bb
       -0.0756481 -0.08787591 0.00049897464 -0.0027515825
0001a0 cf 57 35 bb f1 70 90 bc 0b da 1d bd 35 24 8c bd
       -0.0027670746 -0.01763198 -0.03853802 -0.068428434
0001b0 24 d0 06 3c a2 c5 3c bd b1 7b c0 3d 4f 52 ed 3c
       0.0082283355 -0.046086915 0.09398592 0.028969912
0001c0 95 6f ba bb 5e 7b 37 bc ef 66 e6 bd f1 c7 b8 bb
       -0.005689571 -0.011198847 -0.11250102 -0.0056390692
0001d0 7b ab a5 3d b2 ba b4 3e 47 60 d2 3c 63 c1 b4 3c
       0.08089348 0.35298687 0.025680674 0.02206487
0001e0 e6 3d b2 3e 46 41 95 3c 63 40 67 bd b4 1e a4 3d
       0.3481285 0.018219601 -0.05645789 0.08013669
0001f0 59 72 0f bd ff 8d 9e bc 2e 7f 5c bd c5 38 ce bc
       -0.03502116 -0.019354818 -0.053832226 -0.025173554
000200 ba ec 22 bc 9f ef 7b 3d ae de 0a bd 82 45 25 3d
       -0.009944135 0.061507817 -0.03390377 0.04034949
000210 9c f7 9d bd a7 31 08 3f bf c8 41 3e c3 41 0f 3e
       -0.07713243 0.53200763 0.18924235 0.1398993
000220 e2 de a4 bd f4 19 cf 3a ba 90 bc bd 5e d2 61 ba
       -0.08050324 0.0015800581 -0.09207292 -0.0008614416
000230 2b 91 7b 3e 4a c7 82 bc 45 67 21 3d 1e dc d9 3d
       0.24567096 -0.015964169 0.039405126 0.10637687
000240 94 a3 80 3c 1c 0f 2b 3e 52 e1 b1 bc 3c d2 fb 3c
       0.015703 0.16704983 -0.021713886 0.030739896
000250 c3 f1 43 3e 37 8e 6b 3d d7 ab 2f 3d 50 71 b4 3e
       0.19135194 0.057508674 0.04288849 0.352427
000260 ec 96 07 3a 06 3f ca 3e 3a 1d 94 bc 6a 36 77 bd
       0.00051723304 0.39501208 -0.018080343 -0.060354628
000270 99 ea 11 3d f8 20 5c 3d 2e 45 5c bd 30 eb 03 3c
       0.03562412 0.05374238 -0.053776912 0.008051679
000280 79 0b 0c 3d a7 87 0f 3e 07 83 f2 bd ad c7 e1 bc
       0.03419063 0.14016591 -0.11841398 -0.027561033
000290 26 02 f8 3d b8 1e 8e 3b 2f 4c 0f 3f f7 0b 84 bc
       0.12109785 0.004337158 0.5597562 -0.016118987
0002a0 22 eb ef 3d 58 4a 7d 3b 12 ad 35 bc 65 cd 25 bd
       0.1171477 0.0038649049 -0.011088626 -0.040479083
0002b0 ae 4d c0 3c 43 71 7f bd 51 ec d3 3d 6d 36 df 3c
       0.02347454 -0.062363874 0.10347808 0.027247632
0002c0 87 5c 5b 3c f9 ba f6 bc 56 db 37 bc a0 9b 33 3d
       0.013388759 -0.030118452 -0.011221727 0.043849587
0002d0 b1 e6 2c 3c ac 1f c0 bd 2c 84 de bc 13 09 a9 3c
       0.010553048 -0.09381041 -0.027162634 0.02063421
0002e0 31 b8 a2 3d 50 21 b9 3e ba 34 9d 3c 49 bd ee 3e
       0.07945288 0.36158228 0.019190181 0.46628788
0002f0 2b ec cd bc b2 e4 11 3f 90 b4 64 bc 79 97 96 bd
       -0.025137028 0.56989586 -0.013959065 -0.0735311
000300 22 87 01 be 0c d1 aa 3e d6 be 77 3c b1 6d 84 3d
       -0.12649205 0.33362615 0.015121182 0.064662345
000310 d2 68 91 bd 2e 62 a9 3c 9b 21 7a 3d 33 d8 d7 3c
       -0.07100071 0.020676699 0.061067205 0.026348209
000320 4c 39 91 bd 03 cd 13 3f 5f 81 12 bd c2 20 7f 3e
       -0.07091007 0.577347 -0.03576791 0.2491484
000330 48 43 f3 3d e0 fe 8e bd 72 8c 57 3e 83 03 50 3d
       0.11878067 -0.06982207 0.2104967 0.0507846
000340 bc ea c1 3d 93 de b3 bc 77 41 bb 3d a0 22 d1 3d
       0.094686 -0.021956718 0.09143346 0.10211682
000350 5d 11 5d 3d 08 16 f3 bc bb 96 db 3c 12 b5 1c bd
       0.053971637 -0.029673591 0.026805272 -0.03825862
000360 97 51 94 bd 0a d7 8e 3e 65 c6 1e bd 18 66 08 be
       -0.072421245 0.27898437 -0.038763423 -0.13320196
000370 99 47 f2 3d de 20 f5 3e c8 7a 6a 3d 55 c7 39 3e
       0.118300624 0.47876638 0.057246 0.18142445
000380 26 19 32 bd f0 6a eb 3d 29 2c 3e bd 73 e5 08 3d
       -0.043481015 0.11495006 -0.046428833 0.033421945
000390 83 a9 2b bd 00 c7 93 bc 62 66 b5 bd 6a a8 c0 bc
       -0.041909706 -0.018039227 -0.088574186 -0.023517806
0003a0 e3 e5 b4 bd bf b3 e5 bc 7c e0 23 3e 29 89 93 3d
       -0.0883291 -0.028039811 0.16003603 0.072038956
0003b0 3d 21 38 bd 54 0b 28 bc bd 69 dd 3b 10 c9 d2 bd
       -0.044953573 -0.010256607 0.0067569898 -0.10292256
0003c0 bd 2d b4 bc b6 d5 8a 3d e4 9f c5 3d 96 31 e1 bb
       -0.021994466 0.067790434 0.09649637 -0.006872366
0003d0 69 73 f8 bc c3 90 96 bc 2b 01 d7 3d 0c b2 b4 bb
       -0.03032847 -0.018379575 0.1049827 -0.005514389
0003e0 28 a4 20 bc 51 ed b8 3d 14 b4 e2 bc 86 f9 f5 bc
       -0.009804763 0.090296395 -0.027673759 -0.030026209
0003f0 fe e6 6e bd 7f 3f 9d 3e 6d ac b0 ba 0b 2e ab 3e
       -0.05832576 0.30712506 -0.0013479121 0.33433565

2.bias f4 [128]
000000 9c 59 90 bc 7f e8 3f bc 04 59 5a bd 15 2c 8a bd
       -0.017620854 -0.011713146 -0.05330755 -0.06746689
000010 d6 ee d0 bd 42 41 e3 3d 80 16 24 bd 77 f5 80 bd
       -0.10201804 0.11096431 -0.04006052 -0.06296819
000020 f2 2a ef bd 6a 1f ea 3d 41 94 30 bd 91 34 ed bc
       -0.11678113 0.11431773 -0.043110136 -0.02895573
000030 a8 0a 26 3d 5a b9 c9 bd ca 73 e3 3d 72 fa ea 3d
       0.040537506 -0.09849806 0.111060694 0.1147355
000040 d8 7d 05 3e 67 5e 1e 3d c1 f5 9d 3d c4 b2 27 3d
       0.13036287 0.038664248 0.077128895 0.04094197
000050 f1 14 8b bd 6a 05 1c 3e 4a 33 6e 3d f4 55 c7 3d
       -0.06791104 0.1523644 0.05815438 0.09733191
000060 8e 52 b6 3d 86 8a bf 3d 4a 30 09 3c b3 b7 89 bd
       0.08902465 0.09352593 0.008373329 -0.06724491
000070 01 55 fa 3d 85 a1 05 3d 12 96 58 bc 3a a5 7d bd
       0.122232445 0.03262474 -0.013219373 -0.06192515
000080 ed 83 b8 3c d0 bc a7 bd a8 0b ae 3d 20 6b ff 3d
       0.022523845 -0.0819031 0.08498317 0.12471604
000090 c6 2a 06 be b5 55 4a bd bb 60 97 bd 6c 49 6b bd
       -0.13102254 -0.049398143 -0.07391497 -0.057443067
0000a0 c9 0f 89 3d bf 25 96 bd 82 a1 9c bd 34 0a e3 3a
       0.06692464 -0.07331418 -0.07647993 0.0017321766
0000b0 13 b1 34 bd b0 f5 07 bd c0 12 2d bd 69 e2 43 3d
       -0.044114184 -0.03319329 -0.04225421 0.047823343
0000c0 e4 e4 a3 3d ce 16 a5 bd 98 c5 e0 3d 89 10 b5 bd
       0.08002642 -0.0806099 0.10975188 -0.088410445
0000d0 36 63 42 bd 65 1a 68 3d cb c3 bd bc 6f 08 3d bd
       -0.047457896 0.056665797 -0.02316465 -0.04615062
0000e0 24 84 c5 bd 47 a2 80 3d 94 e8 91 3d 54 fd ee bd
       -0.096443444 0.06280952 0.07124439 -0.11669412
0000f0 92 b1 ce 3d 8c f5 be bc 27 0f e9 bc d6 08 1b bd
       0.100924626 -0.023310445 -0.028449608 -0.037850223
000100 cd 0c 4f 3d 28 54 08 bd c0 5c ee bd e3 c3 9b 3c
       0.050549317 -0.033283383 -0.116387844 0.019014305
000110 cd 0d be bd aa e2 39 bd 96 d8 0f bd 62 8e ee 3c
       -0.09279976 -0.04538218 -0.03511866 0.029120628
000120 cd d5 b4 3d 8e 38 90 bd fd 4f 70 bb 1c 08 c0 3c
       0.08829842 -0.07042037 -0.003666877 0.023441367
000130 4d 6e 90 bd 20 8e 30 bb 82 9f df 3d 4b 25 23 bd
       -0.07052288 -0.0026940182 0.109190956 -0.039830487
000140 dd da 91 bc e7 5e b3 bd 5d 4a d0 3d 19 3f 4b bd
       -0.017804557 -0.087583356 0.10170434 -0.04962072
000150 79 6b cc 3d 87 05 f7 3c 8c 22 77 bb 4e e1 bf bd
       0.09981436 0.030154003 -0.00377098 -0.09369145
000160 d1 d8 0d bd 10 f2 6b 3d a0 e5 a4 bd f0 9e 7c 3a
       -0.0346306 0.057603896 -0.0805161 0.00096367206
000170 64 19 45 bd b5 69 d2 3b 4e a2 08 3e 55 b6 d8 3d
       -0.048119918 0.0064212927 0.13343164 0.10581652
000180 57 85 ce 3c 93 8a 9b bd 05 94 a3 3b d8 61 8d bd
       0.025210066 -0.0759479 0.0049920105 -0.06903428
000190 d7 2c 32 3d 50 8a dc 3d 60 d8 a4 bc b0 29 b1 3d
       0.043499794 0.107685685 -0.020122707 0.086505294
0001a0 ed 89 77 bd b1 50 58 3d e9 4b 8c bd 3b 1d 74 bd
       -0.06043427 0.05281133 -0.06850416 -0.05959819
0001b0 05 26 39 bd a2 00 88 bc 78 80 be 3d 8c 99 c7 bd
       -0.045202274 -0.016601864 0.09301847 -0.097460836
0001c0 97 ca 4d 3d d7 12 7c bd 3c 44 80 bd 61 41 ef 3d
       0.050242033 -0.061541405 -0.06263015 0.11682392
0001d0 fb b6 1d 3e c0 00 e9 3d 10 77 16 bc 53 67 75 3d
       0.15401833 0.11377096 -0.00918366 0.05991299
0001e0 fb 79 eb 3d b5 70 bf bd a6 1e 05 3e 7f 93 0a bd
       0.11497875 -0.09347669 0.12999973 -0.03383207
0001f0 e7 6f 6c bd a0 c3 30 3d e0 89 9c bd a1 f7 7f 3d
       -0.057723906 0.043155313 -0.07643485 0.062492017

4.weight f4 [12, 128]
000000 d5 70 fb 3e f4 d2 e5 bd 3a f5 ab 3e 78 20 f6 3e
       0.49109522 -0.11221877 0.3358553 0.48071647
000010 6a 52 0a 3f ad 63 43 be 35 be c8 3e 49 fb 9e 3e
       0.54032004 -0.19080992 0.39207616 0.3105109
000020 02 3a 0c 3f 26 71 a0 be 8f a6 9b 3e 4e c2 08 3f
       0.5477601 -0.31336325 0.30400512 0.53421485
000030 2f 0f 8d be 25 0f 8a 3e 0d 72 62 be 46 d3 b2 bf
       -0.27550647 0.2696468 -0.2211382 -1.3970726
000040 60 b0 80 be 4b 71 39 be 75 21 85 3e 1f 09 b0 be
       -0.25134563 -0.18109624 0.26002088 -0.3438196
000050 9d 21 11 3f 15 3a 5d be 41 de 63 be dd 80 53 be
       0.56691915 -0.21604188 -0.22252752 -0.20654626
000060 52 55 a9 be 56 26 8c be 45 52 12 3e e5 d1 8d 3d
       -0.33072907 -0.27372998 0.14289196 0.069248
000070 2c e6 56 be 2c 3e 99 be 79 ee 42 3e 4f 83 1b 3f
       -0.20986241 -0.29930246 0.19036283 0.60747236
000080 61 33 00 bf b6 a6 24 3f 82 f2 cb 3e d7 12 66 be
       -0.500784 0.6431688 0.39833456 -0.22468124
000090 69 87 30 3f 19 95 51 bd d9 5e bc 3e 90 f3 f5 3e
       0.6895662 -0.05116758 0.36791113 0.48037386
0000a0 91 93 57 be 6f ba ea 3e 97 72 ad 3e 5d da 49 bd
       -0.21052386 0.45845363 0.33876488 -0.049280513
0000b0 f0 aa 9f 3e df e8 61 3e 72 e0 d8 3e d3 93 8c be
       0.31185102 0.2206149 0.42358738 -0.2745653
0000c0 48 5d 96 be 2f 9a c1 3e 49 19 ac 3d ce e5 03 3f
       -0.29368043 0.37812945 0.0840326 0.5152253
0000d0 2a 5d fa 3e 3a c7 ae be 58 02 02 3f d4 b6 f1 3e
       0.48899204 -0.34136373 0.50784826 0.472098
0000e0 83 89 18 3f 17 45 78 be 75 a1 15 bd b1 24 f7 3e
       0.59584826 -0.24245106 -0.03653093 0.4827018
0000f0 61 20 3c be c0 34 45 3e 6f 32 02 3f d1 ed e6 3e
       -0.18371727 0.19258404 0.50858206 0.45103315
000100 9e 32 a7 be 0d ef e2 3e 49 30 0b 3f 43 a4 41 3e
       -0.32655805 0.44323006 0.5437055 0.18910317
000110 0f ef 59 3e 6a ac f4 3d ad f0 26 be 7f 7c f1 bd
       0.212826 0.11946948 -0.16302748 -0.11791324
000120 6d 81 0f bf 8e 6e fb 3e ee e4 39 3e 96 3e 2c be
       -0.56056863 0.49107784 0.18153736 -0.1682075
000130 57 d6 d2 3e ad 4f 4c be ef fa 0c be a4 f7 b5 3d
       0.41179153 -0.19952269 -0.13767599 0.08885124
000140 f3 bd fd 3e cb 0b 09 3d 5e ba 4a be 52 b7 a5 3e
       0.49558982 0.033458512 -0.19797656 0.32366425
000150 26 4a e9 3c ee 6f 3e be dd 3c cb ba f8 46 f8 3e
       0.02847774 -0.18597385 -0.001550581 0.48491645
000160 09 29 91 3e 21 65 31 3e 60 f2 fb 3e 93 80 8a 3e
       0.2835162 0.17323734 0.49208355 0.2705122
000170 89 cb 0a 3f 3e bc 64 3e 5b bc 9a be 4a 61 8c be
       0.5421682 0.22337434 -0.3022183 -0.27417976
000180 34 55 9b bd ad 82 bd 3e c3 9b f5 be 81 b1 b8 3e
       -0.075846106 0.3701376 -0.479704 0.36072925
000190 6f a0 cb be 3c 41 87 be dc 71 cc 3e 61 5d a6 bd
       -0.3977084 -0.26416957 0.39930618 -0.08123279
0001a0 cd 58 1a 3f a0 8b 24 be 72 14 17 3e d6 a9 08 3f
       0.6029175 -0.16068888 0.14753893 0.5338415
0001b0 19 b3 f0 3e 57 e5 47 3c 86 25 6d be 45 d0 35 3f
       0.4701164 0.012200675 -0.23158845 0.7102092
0001c0 f2 ff 1d be 52 46 f3 bd 70 b4 dd 3e ef 2c 0b be
       -0.15429667 -0.11878647 0.43301725 -0.1359136
0001d0 31 28 ad be 52 38 80 bf 54 db fc be ed 6f 9f be
       -0.33819726 -1.0017188 -0.49386084 -0.3114008
0001e0 74 be 88 be df 03 bd 3e 2f de 38 be 8d 86 6f 3e
       -0.26707804 0.36917016 -0.18053506 0.23391171
0001f0 7f f7 17 3e 97 df 26 be 9f 6d c1 3e 23 68 cc be
       0.14840506 -0.1629623 0.37778947 -0.399232
000200 e9 44 e5 3e a1 83 13 be b8 0a 8b 3e ea 5f c6 3e
       0.44779137 -0.14405681 0.27156615 0.38745052
000210 cc 84 d3 3e ee f9 4f be 7f 59 b3 3e f6 00 b1 3e
       0.41312253 -0.20310184 0.35029218 0.34571046
000220 43 92 ee 3e 38 e2 31 be 65 4c 9e 3e 50 b8 fb 3e
       0.46595964 -0.17371452 0.3091766 0.49164057
000230 d1 cf ec bd 30 18 9b 3e 6f 71 59 be 40 51 a0 3e
       -0.11563075 0.3029189 -0.21234678 0.3131199
000240 f8 c9 84 be d9 17 8c bd 9f a5 82 3e 5f 80 db 3d
       -0.2593534 -0.06840486 0.25516984 0.10717844
000250 3a a0 c2 3e 7b 82 79 be 8c 64 87 be e4 8c 83 be
       0.38012868 -0.2436618 -0.264439 -0.2569343
000260 0d a2 61 be 82 a8 c5 bd fd 4c 33 3d 4a 26 9c bd
       -0.22034474 -0.09651281 0.043774594 -0.076244906
000270 e9 1c 83 be 0d 10 50 be 89 2a 71 be a2 31 ec 3e
       -0.25607994 -0.20318623 -0.23551382 0.46131617
000280 e9 05 6f be 78 23 fb 3e 9b 13 2a bc 42 9c 74 be
       -0.23342098 0.49050498 -0.010380651 -0.23887733
000290 2c bb 04 3f 91 01 d7 bb ff ec d5 3e 4d 90 d8 3e
       0.518481 -0.006561466 0.41782376 0.42297593
0002a0 37 ce 83 bd 0d 40 03 3f 7b 1a 77 3e 15 6d 8f 3e
       -0.06435817 0.5126961 0.24131195 0.2801291
0002b0 f0 21 8a 3e ee 5b 46 be 02 30 1b 3f fe 5f 78 be
       0.26979017 -0.19371006 0.6062013 -0.24255368
0002c0 29 54 6e be 97 15 a1 3e 5a bb b7 3d dd f6 ca 3e
       -0.23274292 0.31461784 0.08971281 0.39641467
0002d0 76 da af 3e df f0 43 be a6 7e f2 3e 76 90 d3 3e
       0.3434636 -0.19134854 0.4736225 0.41321152
0002e0 c3 26 e5 3e 66 5a 48 be 27 af 14 be 60 48 0d 3f
       0.44756135 -0.19565734 -0.1451994 0.5518856
0002f0 c4 f7 84 be 1d 4d 72 3e 4a 0f fa 3e 40 38 af 3e
       -0.2597028 0.23662229 0.4883979 0.34222603
000300 71 f9 fc 3d 3e c0 da 3e ea 80 15 3f c4 a7 88 3e
       0.12352265 0.42724794 0.5839983 0.26690495
000310 2d ab 6f 3e 9f 8e dc 3b c3 b3 3e be e1 85 40 be
       0.23405142 0.006730869 -0.18623261 -0.18801071
000320 93 e1 83 bc 5c f3 fb 3e 76 dc 91 bc 34 1b 88 be
       -0.016098773 0.49209106 -0.01780532 -0.26583254
000330 ec a4 c7 3e 1c 35 f1 3d 1e d0 0c 3d 7f 65 84 be
       0.38993013 0.11777708 0.034378164 -0.25858685
000340 5b 77 ed 3e 12 80 d2 3b 48 7a 93 be 4d 9c 12 3f
       0.46380123 0.0064239586 -0.2880423 0.57269746
000350 b3 b5 84 bd 49 9c e7 bc aa e1 ea bb 2c fa fb 3e
       -0.06479969 -0.028272765 -0.0071680145 0.49214303
000360 99 41 83 3e ec c7 1e 3e 48 05 13 3f 2d 80 58 3e
       0.25635985 0.15505952 0.57429934 0.21142645
000370 ff 20 13 3f c6 95 34 3e 93 d1 85 be a2 76 6d be
       0.57472223 0.17635259 -0.26136455 -0.23189786
000380 63 03 81 be 19 c4 af 3e 9f a2 a6 bd af e4 c0 3e
       -0.25197896 0.34329298 -0.08136486 0.37674472
000390 aa 25 e8 3d 62 c4 81 be bb 59 98 3e 5d 94 32 be
       0.11335309 -0.2534514 0.2975596 -0.17439409
0003a0 08 06 d9 3e 60 10 5d be e4 51 ac bd 24 90 dd 3e
       0.42387414 -0.21588278 -0.08414057 0.43274033
0003b0 d5 d5 dc 3e 22 4b 6c bc 8a f1 8f be 4a d0 04 3f
       0.4313189 -0.01442221 -0.28113967 0.51880324
0003c0 cc 2f 69 be ed 72 0e be f7 7a ca 3e 7d 2f 53 be
       -0.2277214 -0.13911028 0.3954694 -0.20623584
0003d0 2c 80 c7 bd 47 a4 51 bd b9 d8 75 3e 35 11 59 be
       -0.09741244 -0.051182058 0.24008454 -0.2119797
0003e0 ff 81 43 be 87 87 bf 3e 7f 5d d1 bd f6 62 7f 3e
       -0.19092558 0.37408087 -0.10222911 0.24940094
0003f0 2d 52 2b 3f 1a c3 2b be 37 e8 8f 3e 44 b3 7f be
       0.66922265 -0.16773644 0.28106853 -0.24970728

4.bias f4 [12]
000000 54 24 5d 3d a2 5a 8b bc e1 41 b4 bd 2b b6 c8 bd
       0.053989723 -0.01701099 -0.08801628 -0.09800371
000010 e7 c1 ff bd 11 24 d3 3a e1 e9 a0 3c 19 44 b3 3d
       -0.12488156 0.0016108771 0.019642772 0.08753223
000020 9f 42 d1 bd d8 0f c5 3d 59 d4 cb bc 59 d4 cb bc
       -0.10217785 0.096221626 -0.024881529 -0.024881529
