model/policy.pt (torch, 87903 bytes, 6 tensors)

0.weight f4 [128, 33]
00000000: 7bcb 4bbd f48b c1bc 6738 c83c 2610 5f3c
00000010: 55e3 82bc ef5c 10bb f0d1 8dbb eea5 64bb
00000020: 6e55 9cbd 42bc c8bc 6b1f 03bd fd4a 83bb
00000030: c4aa b43b eece 17be dee7 0a3e 9f01 743b
00000040: 4333 df3c fb02 97bc cb38 49bc bc0a b0bb
00000050: 8be4 1abd 793d 05bd 9abf 54bc 2219 2a3d
00000060: 7527 c83c afa5 29bd 9239 d93d 16a8 1bbd
00000070: 6a99 03bd 4832 0600 87aa 1b3d ce16 0080
00000080: a556 17bd 9a75 b43d ec01 d5bd b8b7 063d
00000090: a92a 433d 5418 cb38 8e47 e4b9 3b7b b7bc
000000a0: 11c9 543b adfb 03bd f316 5d3c 94ef 333c
000000b0: 9f34 78bb 2134 dfba a913 0dbd 2608 473d
000000c0: 57cf e5bd d8a9 71bc fa8e d2bc ff0c dabc
000000d0: 1da9 bebc dc60 6b3d f8ad b63b 1a7e 9d3b
000000e0: 1615 ad3c 9f25 fc3c a832 943c ea0e 1a3d
000000f0: ec10 28bd 80d9 d13d 70b6 0280 6917 283d
00000100: 598a 0300 31e8 803d e21b 15be 1fcb 00bd
00000110: 757c fdbd 8277 81bb e687 afba 273f 7dbb
00000120: 0b6a 4a3a a91f 8ebb 4152 b93b 320e c1bb
00000130: b2de 703c b0bd 2b3b 5fc4 2dbb 3c80 ff3c
00000140: 8f4a 92bd 0f22 d33d b357 533c 2559 983b
00000150: 38e0 fc3b 1e15 9b3b 139d 783c 5d80 bebc
00000160: f659 2cbd cc25 ef3a 55f2 1ebc 1cbd b53c
00000170: 72f6 783c a760 bfbc cc43 22bd 836a 0700
00000180: 033f bb3c 582f 0100 7487 b63b 4aa9 ecbd
00000190: 9ced 90bd e94f 0b3d b804 83bc 8376 bd3c
000001a0: 0d8d ba3c 8225 00bd 6ab2 893c 9484 71bc
000001b0: 8d3f 9d3c 8ef9 0fbd 4c64 9cbb 2e3f edbb
000001c0: f04f 203e 64ea 303e 8550 f6bd d0f7 44bc
000001d0: 4ce2 91bc ea66 393b a9b2 8b3c e809 363d
000001e0: 2de3 7d3d 4b67 ccbb 9457 c53b f666 8e3c
000001f0: e729 793b 7650 b8bd 2a52 36bd 17b0 d13d
00000200: da99 0000 93f9 353d 3a8d 0200 736e 163e
00000210: 2a5e b03c 2216 3dbd fd89 3fbe d5bb 6c3c
00000220: 37af 033b ae11 283c ae76 81bb 2900 a9bc
00000230: ee15 95bc 17e4 0fbc 7b4a 803b 8c99 a63c
00000240: 71b8 cebc 5a58 353d 1ec9 c1ba bcc6 a13d
00000250: 0aa8 7bbb 8f34 8cbc 13b3 14bc e3c4 953b
00000260: 8217 903c f8a3 60bc 33cf 573c 1e37 8f3c
00000270: be3a bcbb 7acb 883b b9df 8cbd 6c03 0dbd
00000280: f0df c3bc f502 0800 2139 0b3d 3e90 0080
00000290: 864f cebc f173 c1bc b53c 973d 0c18 b5bd
000002a0: d1b1 6c3c eac4 33bc 6cd8 efbb d499 a5bc
000002b0: 3052 fcb7 7b42 0dbc d873 8cbc c8cc cdb9
000002c0: e98d 343d afdb 8ebb b9a8 2d3d 74df e9bd
000002d0: ee0c 12bd 8bf6 aa3c a5ac ae3c e2f0 e53c
000002e0: 0da0 e93b d588 193b 8b81 233c 0719 ee3c
000002f0: dcc3 063b 3b7f 39bd 19be 263c dd41 853c
00000300: c3e9 57bc 7bba 033e 4d04 0280 08f9 573c
00000310: 69d9 0700 49ab a83d db81 d3bd 628a 8e3d
00000320: e228 5bb9 2404 5cbb 9930 fd3c 6999 8a3a
00000330: 0438 ca3b aeb3 e5bc 60e5 b13c 230d d7bb
00000340: 5527 3dbc 90a8 043c 3cf2 ee3b 6def 00bb
00000350: 9b03 98bc 29ab 5dbd 68fe 193c 21cb cb3b
00000360: f896 f73c 28e5 24bc b6e6 15bd 0fef 03bc
00000370: 3766 41bd 06bc 0ebd 9d48 0abd 971b 09bd
00000380: b813 a63d 24e3 e8bc 159f ab3d 2197 0000
00000390: 6adf e83c 01b3 0700 988c 60ba 6e89 b43c
000003a0: ddc8 443d 2784 9bbd a4c3 4639 78f6 5d3c
000003b0: 4431 113c a80a 63bc 40db 5a3c 8329 a6ba
000003c0: 5403 d2ba 3d44 073d e505 993c 12e1 a4bc
000003d0: 73ae a63d 2311 423c 2b81 8cbd 428c b73b
000003e0: e053 0abd 6c29 36bc be38 e5bc 2d45 b93c
000003f0: 7833 493c f4fe b2bc e653 8c3d 6006 45bc
-0.0497546 -0.023626305 0.024440957 0.01361469 -0.015977541 -0.002202805 -0.004328005 -0.003488894
-0.07633482 -0.02450383 -0.032012384 -0.004006742 0.005513521 -0.14825031 0.13565013 0.0037232412
0.027246123 -0.018434038 -0.012281607 -0.0053723734 -0.03781561 -0.032529328 -0.0129851345 0.041527875
0.024432877 -0.041417774 0.10606684 -0.038002096 -0.03212873 5.6905e-40 0.038004424 -8.181e-42
-0.036947865 0.08811493 -0.10400757 0.03289005 0.047648106 9.684326e-05 -0.0004354086 -0.022397628
0.0032468478 -0.03222244 0.013494241 0.010982413 -0.0037873161 -0.0017029085 -0.034442578 0.048591755
-0.112211876 -0.014749967 -0.025702942 -0.026617525 -0.023273999 0.05746542 0.005574938 0.0048062922
0.021128219 0.030779658 0.018090561 0.03761188 -0.041031763 0.10246563 -2.49117e-40 0.04103795
3.25136e-40 0.06294287 -0.14561418 -0.03144371 -0.12377254 -0.003951014 -0.0013391941 -0.0038642378
0.000772149 -0.0043372703 0.0056555574 -0.005891585 0.014701532 0.0026205592 -0.0026514751 0.031189077
-0.07143127 0.103092305 0.012899327 0.0046492987 0.0077171586 0.004732742 0.015174168 -0.023254568
-0.04207798 0.0018245517 -0.009701331 0.022184901 0.015195476 -0.023361517 -0.039615437 6.81058e-40
0.022857195 1.08819e-40 0.0055703465 -0.11555727 -0.070765704 0.034011755 -0.015993461 0.0231278
0.022772336 -0.03128577 0.016808707 -0.014741082 0.019195342 -0.035150103 -0.0047726985 -0.0072401976
0.15655494 0.17276913 -0.12027077 -0.012021974 -0.017808102 0.0028290101 0.017052965 0.04444304
0.06198423 -0.0062378994 0.006022403 0.01738308 0.003801936 -0.08999722 -0.04451195 0.102386646
5.5192e-41 0.044427466 2.34334e-40 0.1469057 0.021529276 -0.046163686 -0.18704982 0.0144490795
0.002009345 0.010258121 -0.0039509153 -0.02062996 -0.018198933 -0.008782408 0.0039151288 0.020336889
-0.025234433 0.04427371 -0.0014784669 0.07899234 -0.003839972 -0.017114906 -0.009075898 0.00457059
0.017589334 -0.013710968 0.013171959 0.017482337 -0.0057443073 0.004174647 -0.06878609 -0.03442709
-0.023910493 7.35745e-40 0.03399003 -5.1744e-41 -0.025184404 -0.023614855 0.07384626 -0.08842477
0.014446692 -0.010972241 -0.0073195007 -0.020214953 -3.0079013e-05 -0.008621807 -0.017145082 -0.0003925322
0.04408065 -0.0043596844 0.042397235 -0.114195734 -0.035656862 0.020869514 0.021322558 0.028068963
0.0071296752 0.0023427506 0.009979616 0.029064668 0.0020563519 -0.045287352 0.010177159 0.016266758
-0.013178292 0.12864105 -1.85214e-40 0.013181932 7.2084e-40 0.08235795 -0.10327502 0.06959988
-0.00020900698 -0.0033571804 0.030906962 0.0010574284 0.0061712284 -0.02803978 0.02171582 -0.0065628453
-0.011545022 0.008096829 0.00729206 -0.001967396 -0.018556407 -0.05411831 0.009399034 0.006219283
0.030223355 -0.010064401 -0.036596976 -0.0080526015 -0.04721662 -0.034847282 -0.033760656 -0.033473577
0.0810923 -0.028428622 0.08379952 5.4215e-41 0.028426845 7.07063e-40 -0.0008565872 0.022038188
0.04804312 -0.075935654 0.00018955633 0.013547532 0.0088618435 -0.013857521 0.013357937 -0.0012677166
-0.001602272 0.03302406 0.018679569 -0.020126853 0.08138742 0.011844906 -0.06860574 0.005601437
-0.033771396 -0.011118274 -0.027981158 0.022615993 0.0122803375 -0.021850087 0.0685194 -0.012025446

0.bias f4 [128]
00000000: 77aa 1b3d b8cb 273d 9130 bd3c 9333 363d
00000010: 4995 0d3d 35e5 573c c1ee e83c 115f afbb
00000020: a890 0b3c aa41 d33c afa9 86bc e745 e53b
00000030: 3a68 183c 9347 b53c d7cf c13c 4b68 723c
00000040: c590 0c3d 0d5b 103c 3d33 c23b ab5c 7a3c
00000050: e61d dfbb 84b7 f83c a15d ff3c 1816 0a3d
00000060: 46d4 303d 6107 1dbc 2119 903c 6217 733b
00000070: bbf1 9e3b dcee b73c 0190 af3c ae13 ff3c
00000080: b5f9 613c cf5a 243c dcca e6bb 21ee 923c
00000090: 9749 88bc 5686 f73c 7c60 9a3c b705 233d
000000a0: 2c36 3a3d 7f1e 033d 601c b53c 1806 28bc
000000b0: b5e4 c6bc 7bb0 0d3d 96ac 313c d653 493c
000000c0: 247d 32bc a234 283d acc3 193d 8bfd 4fbb
000000d0: 1f6f ff3c eb0b e63c a7d6 a9bb 5648 f93c
000000e0: 3ff1 afbb 13e3 083c ae5d 183c 8a2e 133c
000000f0: f435 73bc eef5 013d fad9 b43c bebf 003d
00000100: 5b51 f83c 53a9 c33c f881 dd3b 5257 463c
00000110: 6c88 aa3c ccdb 333d 4f4e 133d 2137 b93c
00000120: 6793 e83c 8b8b 88bb 1a12 cc3b 8c22 573c
00000130: 05ce 173d a695 313a eaad 153c cd82 d53c
00000140: 0de9 d13c 3030 0f3c 7166 7b3c 7bf6 293c
00000150: 490d ef3c c4cf be3c 9590 a23b 3196 adbb
00000160: 7516 b63c 85fa d93c 9788 953c 5657 40bc
00000170: e69f 383d 9f78 193c 26c7 793c f8ce 34bb
00000180: 6a15 ddba dbfb bc3c 3063 08bb 1b47 f83c
00000190: fb86 543c ffa4 5d3c 8d62 293d 328d 2e3d
000001a0: 6d3a 3a3d a458 f53c 8ccf 7b3c 6cca 3f3b
000001b0: 9b14 ee3c c4e9 2bbc 9894 363d 14b8 213c
000001c0: 2b6f 8d3c 30ad 413c 1949 c23b 7245 a8bc
000001d0: 06d0 223d 8385 6e3c 94bb 4d3d 496e c03c
000001e0: 768a dabb 2ec0 953c 06c1 973c e9af 7e3c
000001f0: 6443 85bc 51b9 223d 6514 303d c28e 803d
0.038004365 0.040965766 0.023094447 0.04448278 0.034566198 0.013177206 0.02843416 -0.005351909
0.008518375 0.025788147 -0.016438333 0.0069968584 0.009302193 0.022128856 0.023658676 0.014795373
0.03431775 0.008810771 0.0059265182 0.015280883 -0.006808984 0.030360945 0.031172575 0.033712476
0.04317119 -0.009584279 0.017590107 0.0037092795 0.004850594 0.022452764 0.021430971 0.031137314
0.013792445 0.010031416 -0.0070432257 0.017935814 -0.016636653 0.030215424 0.018844835 0.039800372
0.04546182 0.032011505 0.022108257 -0.010255359 -0.024278978 0.034592133 0.01084437 0.012288054
-0.010894094 0.04106582 0.037540123 -0.0031736817 0.031180916 0.028081855 -0.0051830593 0.03043
-0.005369335 0.00835492 0.009299679 0.008983264 -0.014844406 0.031728677 0.022076596 0.03143286
0.03031223 0.023884451 0.0067598782 0.01210578 0.020817004 0.043910787 0.035963353 0.022609295
0.0283906 -0.0041670254 0.006227744 0.013130795 0.03706171 0.00067743135 0.009135703 0.026063347
0.025623823 0.008739516 0.015344248 0.010373707 0.02918114 0.02329243 0.004961083 -0.005297445
0.022227505 0.026608715 0.018253608 -0.0117395725 0.045074366 0.009367137 0.015245235 -0.0027589183
-0.0016867344 0.023069313 -0.0020811073 0.030307343 0.012971635 0.013528108 0.04135375 0.042615123
0.045465875 0.029949494 0.015369307 0.002926494 0.02906256 -0.010492746 0.044575304 0.009870548
0.017264923 0.011821076 0.005929124 -0.020540927 0.039749168 0.014558199 0.050227717 0.023490088
-0.006669338 0.018280115 0.018524658 0.01554487 -0.016267486 0.039727513 0.0429882 0.06277229

2.weight f4 [128, 128]
00000000: 110a 63b9 df6e 033d 57cc f1bc 10c6 b23c
00000010: 9249 a1bc 7d23 b3bc 1e7e 9ebb 512f 26ba
00000020: 6369 143b 9856 05bd d5eb f63c 6977 5eba
00000030: 79a2 b7bc 56a2 c93c 872f 45bc 5e64 b4bc
00000040: e4d1 483d 9139 133d e1bf ce3b 3a89 e2bb
00000050: 753b f1bb bace bf39 080b 7e3c 1848 1e3d
00000060: 57a5 913b 0e05 993a 881d fc3c 0a39 3cbb
00000070: 7c01 3cbc 224d edbc 6872 5c3d a81f 66bb
00000080: c0b1 823c f3f7 48bc 0b4b 1bbc 4aa7 f2bb
00000090: 84d2 5a3c a9ca 4a3c 7849 6e3c c34a 85bc
000000a0: 9428 8abd cdb6 4c3d 6f9e d8bc 8d5a d3bc
000000b0: 16bb 52bc 1f5f 403d 0924 80bc 7149 72bb
000000c0: a009 1fbc 182e 893c e75f 953c e133 8dbb
000000d0: bbb0 1f3d b48f c33c 841a a3bc c6f6 caba
000000e0: a0c0 d8bb 1313 8c3c bd0c 53bd 8ec6 853d
000000f0: b1da 82bc 3d22 0a3c 59af 99bc 92b1 b3bc
00000100: 1aa7 273d d788 213c fa7e 21bd fd37 2e3d
00000110: f556 703c 6479 1a3d 4b9d 24bb ca2c 82bc
00000120: 4b49 01bd 055f 733d fb8c 2438 c56d 723b
00000130: 4825 fb3a 6667 4f3c e309 2b3c 4d84 973c
00000140: 351a 6c3c d1a0 8b3c 78b6 1d3d 77c9 a3bc
00000150: 24a7 073d afc5 b03c 2a67 a83c 91b0 933b
00000160: af10 fbbc 1e06 0e3d 04ec b83c 870d f63a
00000170: b663 c4bc 78f4 f83b 5bb4 ebbc 0907 3abc
00000180: 302c 83bb bd93 023d 8795 2c3c fe2a 1c3d
00000190: 547b 0b3d ce69 fbbc 51b4 a83c cef3 67bc
000001a0: 6a0f 19bd 5065 253c 0bb5 363c b83f 0fba
000001b0: 77e4 70bb 6116 32bc 96a6 033d a9a6 d73c
000001c0: d450 863a a73f 57bc 9954 fc3b 2724 c13c
000001d0: defa a83b 4f4e 33bc 1c94 c63c 92d9 9b3c
000001e0: 4ec8 e13c aa70 4fbc b546 b5bc 209f 00bb
000001f0: dc33 ec3b e650 cf3c f161 243d acc1 453c
00000200: 674c bebc c39b b73c 5f97 90bc 135d 7e3d
00000210: 56d9 a5bc bc1c 9abc 9a41 913c 0a49 b63b
00000220: 0dbe 8bbc 3208 9e3b 54ab 293d 023d 68bc
00000230: 7fcb 143b 740e 023d 09c9 cebc 7357 1abc
00000240: 634a 243c cfe3 c23c 449e 24bc d70a 80bc
00000250: 9547 b2bc f36e 22bd 90b7 763c 24ce 3f3c
00000260: dbf4 c1bc acc3 ba3c 9d76 203d e20d 9c3c
00000270: 9d14 953c c420 9ebc 78a7 303d f183 cfbb
00000280: 4c20 ae3b 61b3 b8bc 0b63 873a 4310 6bb9
00000290: 3ecb 6a3c e4c3 763c 28d2 a33c ee94 353c
000002a0: 949a 98bd 4223 a53c 206f b93b 66fe 7fbc
000002b0: 4af2 9abc cf92 e13b 2943 b8bc c046 86bc
000002c0: 5389 2d3b 6491 ea3c 1427 0c3d 6493 cabc
000002d0: 3536 513c e1ed 3abc 13dc a0bc 73c5 1fbc
000002e0: 0fb1 233b 9045 503b b51e f5bc baf8 493d
000002f0: 3c3b 81bb 5c0d 183d a641 22bd eda3 a13c
00000300: 1ebf aa3c ebee 143d 9b3c adbc 90a5 233d
00000310: e664 43bb 8ffa c03b 0644 f63c 1109 a3bc
00000320: 7304 edbb 481f 123d 78ca 193a 19b0 bfbc
00000330: 3e61 393c f80d f93c ec1a 25bc 5d12 e03c
00000340: 6c61 333d cf37 c43c e4be 173d 5858 8bbc
00000350: ff3e cabc 9582 f63c f278 df3a d972 b83a
00000360: 3ccd cfbc a2f6 983c 5a4b 253c 19b1 0c3c
00000370: 2ba6 ef3b be7b 12bc d007 08bd bcea 393c
00000380: 3f40 9ebc 4012 0e3d c758 343b 8c18 4fbc
00000390: 8bcd 0e3d 0c43 1bbc 199f 543d 496a 753c
000003a0: 581e 0ebd 96ca e83b ef07 013a 20e7 a1bb
000003b0: 8850 433c 5e89 083c 0a75 2bbb f051 7a3c
000003c0: b2d3 903c 9df5 433c 7cc3 e2bb 8467 153d
000003d0: 84ef 00bd a157 ddbc 5569 ec3a 7a01 1e3d
000003e0: 7d34 cc3c 4b1a 713c cd2d 20ba 7374 2f3c
000003f0: c395 833c 1b81 c5bb 0839 693d e833 463d
-0.00021652157 0.032088157 -0.029516382 0.02182296 -0.019688401 -0.021867508 -0.0048368117 -0.0006339448
0.0022645823 -0.032553285 0.03014175 -0.00084864214 -0.02241634 0.02461354 -0.012035257 -0.022020515
0.049028292 0.03594357 0.006309495 -0.0069133313 -0.007361824 0.00036584382 0.01550556 0.038642973
0.004444759 0.001167448 0.0307758 -0.0028720521 -0.011474963 -0.028967444 0.053820044 -0.0035114083
0.015953898 -0.012266147 -0.009478341 -0.0074051963 0.013355855 0.0123774195 0.0145438835 -0.016271
-0.06746021 0.04997902 -0.026442735 -0.025800014 -0.012861988 0.046965715 -0.015642183 -0.0036970044
-0.009706885 0.016745612 0.018234206 -0.004309163 0.038986903 0.023872234 -0.019910105 -0.0015484921
-0.0066147596 0.017098939 -0.05152582 0.06532012 -0.01597342 0.008431015 -0.01876037 -0.021935258
0.040930845 0.009859285 -0.039427735 0.042533863 0.01466917 0.037713423 -0.0025118168 -0.015890498
-0.03156404 0.05941679 3.9231945e-05 0.0036991697 0.0019160891 0.012658929 0.010439369 0.018495703
0.014410545 0.017044457 0.038504094 -0.019993527 0.033118382 0.021578638 0.020557005 0.0045071323
-0.030647604 0.034673803 0.022573479 0.0018772342 -0.023973327 0.0075975023 -0.028772524 -0.011354216
-0.0040030703 0.031879175 0.010533697 0.038126938 0.03405316 -0.0306901 0.020593794 -0.014157249
-0.037368216 0.010094956 0.011151562 -0.0005464512 -0.003675727 -0.010869593 0.03214129 0.026324587
0.0010247477 -0.0131377345 0.0077005145 0.02357681 0.005156859 -0.010943963 0.024240546 0.019024644
0.027561333 -0.012661139 -0.022128442 -0.0019626096 0.0072083306 0.02530713 0.040132467 0.012070101
-0.02322979 0.02241314 -0.017650304 0.06210048 -0.020245235 -0.01881253 0.017731477 0.005562906
-0.017058397 0.0048227543 0.041423157 -0.014174702 0.00227043 0.031752065 -0.025242345 -0.009420264
0.010027501 0.023790268 -0.010047499 -0.015630169 -0.021762649 -0.03965659 0.015058413 0.011706863
-0.023676326 0.022798382 0.03917562 0.019049589 0.018198306 -0.019302733 0.04312846 -0.0063328673
0.0053139087 -0.022546472 0.00103292 -0.00022417404 0.014330683 0.015061352 0.019997671 0.011082871
-0.074513584 0.020158414 0.005658999 -0.015624618 -0.01891436 0.006883956 -0.022492962 -0.016391158
0.0026479557 0.02863378 0.034216955 -0.024728484 0.012769272 -0.011409254 -0.01963619 -0.009751665
0.0024977361 0.0031779744 -0.029921869 0.04930947 -0.003943829 0.037122115 -0.03961339 0.019731486
0.020843085 0.036360662 -0.021147063 0.039952815 -0.0029814779 0.005889244 0.030061733 -0.019901784
-0.0072331964 0.035674363 0.0005866657 -0.0233994 0.011314688 0.030402169 -0.010077219 0.027352506
0.04379408 0.023952393 0.03704728 -0.017009899 -0.024688242 0.030091563 0.0017049594 0.0014072313
-0.025366418 0.018672291 0.010088766 0.008587145 0.00731351 -0.008940635 -0.033210576 0.011347469
-0.019317744 0.034685373 0.0027518736 -0.01264013 0.03486399 -0.009476434 0.05190954 0.014978954
-0.034696907 0.0071042283 0.00049221417 -0.0049408823 0.011921056 0.008333532 -0.002616229 0.0152783245
0.01767907 0.011960414 -0.006920276 0.036475673 -0.03147842 -0.027019324 0.0018036762 0.038575627
0.024927372 0.014715741 -0.00061103405 0.010708916 0.016062623 -0.0060273535 0.056939155 0.048389345

2.bias f4 [128]
00000000: 5159 9f3c 5df6 b93c 72e1 c03c 2286 853c
00000010: 64d4 8c3c bc1c 9d3c 905c ac3c cbe2 8e3c
00000020: 6a0b 943c 5837 833c cde5 d53c 11ce 5b3c
00000030: 7eaa a63c 678c 8c3c b732 3a3c bdc7 a73c
00000040: c621 833c 778b 8f3c af94 bc3c c0a0 c63c
00000050: 357b 753c 5e4b c73c 424b 543c f679 b13c
00000060: c3a5 b53c 7bae 983c 5ef1 b93c 77b3 8d3c
00000070: 34ed c23c 6004 b13c 493f 753c 3ada 643c
00000080: 85d0 243c 2d37 8c3c c5db b33c bb2b a23c
00000090: 876b 823c cc4d 8c3c 265a 433c 704d 913c
000000a0: 189c 6d3c ca7c 743c 2d2a 4a3c ae02 293c
000000b0: ecf4 803c f4b6 ad3c 9b00 ae3c 8d1d b23c
000000c0: 718d c23c d64b 943c cb50 b53c 84c2 aa3c
000000d0: 252e 913c 2256 cd3c 0529 c13c 05fb 8d3c
000000e0: c4f8 c43c 14e1 9e3c a77d df3c 78d2 9f3c
000000f0: 01c6 9e3c ef2f b83c 833e a13c 6616 c43c
00000100: c64d a33c 86e0 d53c 0dc4 a33c ebd0 9c3c
00000110: d1d5 a53c 2536 5b3c b503 9f3c 0884 493c
00000120: 764c 763c 0d1a 753c 25a7 803c e4c4 903c
00000130: 5ff6 9a3c ec79 6c3c b99d e63c 2ca8 8e3c
00000140: f41d 6f3c 6704 873c a33a da3c 137d ad3c
00000150: 9834 b53c fc70 b23c bac5 ae3c 86f2 ce3c
00000160: bc02 823c 5389 c93c 670b b53c 2912 ba3c
00000170: e55d 893c ef92 aa3c 4550 983c ff55 963c
00000180: 19e7 893c 2ef4 7f3c 1c37 913c 44c8 913c
00000190: 9190 c33c 90f4 723c 3ee8 963c 9e95 943c
000001a0: 20c0 973c 7e96 c03c 5aee bf3c 8f59 b03c
000001b0: e78d cb3c 3a97 df3c 5750 ad3c 8405 c43c
000001c0: 8faa e43c 0656 ab3c e582 f43c eb54 ca3c
000001d0: 8e97 bc3c 882d 943c 4be3 563c 27cd c73c
000001e0: 2ac7 b43c ac4e a93c 8e2d b13c 7ccd 903c
000001f0: 8745 b13c 03ff c33c af0f 993c 6fa6 d83c
0.01945177 0.022700483 0.023545 0.016299311 0.01719112 0.01917874 0.021040231 0.017442128
0.018071849 0.0160176 0.026110554 0.013415829 0.020344969 0.017156793 0.01136463 0.020480985
0.016007315 0.017522557 0.023020117 0.024246573 0.014982988 0.02432793 0.012957396 0.0216646
0.022173768 0.018637886 0.0226981 0.01729749 0.023794748 0.021608531 0.014968702 0.013968045
0.010059481 0.017116154 0.02195538 0.019796243 0.015920414 0.01712694 0.0119233485 0.01773712
0.014502548 0.01492233 0.012339157 0.01031558 0.015741788 0.021205403 0.021240523 0.021742607
0.023749085 0.018102568 0.022133252 0.020844705 0.017722199 0.025065485 0.02357913 0.01733161
0.024044402 0.019394435 0.027281595 0.019509539 0.019381525 0.022483794 0.019683128 0.023936462
0.019934546 0.026108038 0.019990945 0.019142589 0.020243557 0.013379608 0.019410947 0.012299545
0.015032878 0.014959824 0.0157047 0.01767201 0.018916307 0.014433365 0.02815138 0.017414175
0.014594544 0.016481591 0.026639288 0.021177804 0.022119805 0.02178239 0.021334518 0.025262129
0.015870444 0.024601614 0.022100164 0.022713738 0.016768405 0.020822017 0.018592963 0.018351553
0.016833829 0.015622182 0.017726474 0.01779569 0.023872646 0.014828816 0.018421289 0.01813775
0.01852423 0.02350926 0.023429085 0.02152708 0.024847938 0.02729379 0.021156473 0.023928411
0.02791336 0.020915043 0.029847572 0.024698695 0.023021486 0.018088117 0.013115714 0.024389816
0.022067625 0.020667396 0.021628167 0.017676108 0.021639599 0.02392531 0.018684236 0.02644655

4.weight f4 [4, 128]
00000000: 6032 ba3d 8778 723d 0e1f 433e 9774 763d
00000010: 82de 043d 98c8 0fbe 6b08 403e a362 1b3e
00000020: 25d6 1bbe c5a6 f2bd c289 873d a067 25be
00000030: a650 a4bd 247d 803d e967 8f3c ac43 833d
00000040: 7200 3bbe 5aaf 8bbd 93e3 34be 87d8 063e
00000050: 8f25 39be d18d 503e 07cd 35bd 54f2 91bd
00000060: 7adc f73d b456 0ebe c0f4 f33d cc29 d1bd
00000070: fe68 903d 2935 033e 20be d9bd 1dac ef3c
00000080: dc8f 9cbd 66d8 cfbd eaf2 0a3e 8da1 9a3d
00000090: 6b88 d1bd 46e6 20be f95d afbd f775 2cbe
000000a0: f237 ecbd b71a e2bd 769f 9bba 63d6 5dbc
000000b0: 7303 31be a74c 17be 1e77 0e3e 69c8 9f3d
000000c0: deda 4f3e c376 7a3d 3457 9ebd 6f22 113e
000000d0: 40a9 58be 69f0 dd3d 1181 923d ba04 4ebe
000000e0: e220 683e 6ff5 09be fd8d b33d 8a81 22be
000000f0: 77b6 cb3d 65da 423c 15bd e53d 2638 4b3d
00000100: d499 a43d ffa3 023e 7b57 853d 86ee 43be
00000110: 5567 b03d d385 aebd 266d 2b3d 4312 3bbe
00000120: 5768 b73c 8ac3 12be 837b 10be d4a0 dabd
00000130: c472 ba3d 6687 f8bc c9b7 1e3e e1d1 abbd
00000140: d42f 82bc ce56 da3c b9e0 633d 5517 bdba
00000150: ee9d 8fbd 7a83 ff3d 4d45 313e 9acd ef3d
00000160: 466f b4bd 970d 8b3d a078 d3bd 5b32 273e
00000170: 2c4e 8ebd 938f d6bd 7a1a 72be ca4a 8dba
00000180: b6dc f0bd d6f8 16bd 29cd 943c 1319 6ebd
00000190: e08a de3d 6588 bcbd 187f 34be 8eb7 10be
000001a0: b73d 3fbd 898c 19bd db6b f83c 083f 36bc
000001b0: bc0b 613d 32d1 623d 9a49 4e3e 4a6a 66be
000001c0: 2d83 123e 7be4 acbd 5b06 a13d 31c8 d73c
000001d0: 1d9f f6bb 6d36 9ebd db1b cfbd 1cc8 5d3d
000001e0: 520a d43d 5f55 083e f6a9 4f3e 922b 583d
000001f0: b435 3dbe 6f2b f2bc fdb7 b6bd d27d 363e
00000200: 3c19 363d f72f 0abe 5031 c43c ef32 af3c
00000210: fb3f c23d f8bb cc3d 9720 653d 4959 4dbd
00000220: a3ee dc3d fc18 db3d ec62 60be d2d5 fcbc
00000230: d6a1 4cbd 60f0 913d 0edd df3d dcb2 ccbd
00000240: 9b8f 863d 8104 103e 6432 c7bd 38c2 acbc
00000250: ee7b a23d 30e8 d23d a4df e33d d9bf 573e
00000260: 035d 3b3d 27df bbbd 982b 87bd 06d1 213e
00000270: 658e 1b3e a826 473d 409a 023d 7f4a ca3c
00000280: 9098 ff3d b938 a4bc a981 bb3d e2eb 69bc
00000290: b46d 033e 9454 063e f7b6 903d cf5b 7d3d
000002a0: 29f5 ac3c 8fde c43d d611 013e 2f8d ef3d
000002b0: 76c4 673d 4481 d1bc 4110 1c3d d24c 063e
000002c0: 70e9 13bd 9f79 be3c f46d 503e d85a 6d3c
000002d0: 240a 83bd ce06 3fbe 1717 24be 1e82 973d
000002e0: 3501 abbd 0ea8 b6bd 3b81 813e 0629 a33c
000002f0: ecf9 b73c 7259 16be 23aa 163d a941 39be
00000300: 8c74 c73d b64c 7bbd 235f e9bd b9ee 5b3d
00000310: cd96 e03a 05c8 173e 8403 8f3d 3011 6b3c
00000320: 0d95 9fbd 165d 6fbd 191e a5bd 28ea f03d
00000330: 0a8c b23d b405 de3c 2c2d 29be 1958 18be
00000340: caaa 98bd 18b1 1b3e f418 dbbd eb78 c3bd
00000350: a30f 42be 94a8 3e3e 0a53 a73d 5800 32be
00000360: 798e 933d a8d1 20bb 9577 343e c341 c4bd
00000370: f57b 743c a8a9 29be 0559 2dbd 9fea e2bd
00000380: 4bc0 53bc e33c f73d e16c c5bd 77f0 93bd
00000390: 157c 5cbd 4132 293d 33db e2bd 684c ecbc
000003a0: 58f7 65bd 365b febd 1a23 1bbc 3d9a 7bbd
000003b0: d953 23be 9202 62be ebda 313c 6686 6bbd
000003c0: df97 28be 23d2 17be b793 843e f5ef 3abe
000003d0: 46c5 3abe 7288 0d3e 64c5 663c 8447 08be
000003e0: 5485 b1bd 0dc9 c03c 6fba 8bbd ad54 ce3d
000003f0: 17b8 07be 8c47 913e 5e2e 0e3e 8fb0 3c3e
0.090916395 0.059196975 0.19054815 0.060169782 0.032438762 -0.14041364 0.18753211 0.15174346
-0.15218408 -0.11848215 0.06618072 -0.16152811 -0.08023195 0.06273869 0.017505603 0.06409392
-0.18261889 -0.06820555 -0.17664938 0.13168536 -0.18080734 0.20366599 -0.044384982 -0.071262985
0.121025994 -0.13900262 0.11911917 -0.1021305 0.07051276 0.12813248 -0.106319666 0.029256875
-0.076446265 -0.101486966 0.13569227 0.075503446 -0.10231098 -0.15712842 -0.08562846 -0.16841875
-0.11534108 -0.11040252 -0.0011873085 -0.013539883 -0.17286472 -0.14775334 0.13912627 0.07801897
0.20298335 0.061148416 -0.077314764 0.14173292 -0.21158314 0.1083687 0.07153524 -0.2011899
0.22668794 -0.13472532 0.087673165 -0.15869728 0.09946912 0.01189289 0.11217705 0.049614094
0.08037153 0.12757872 0.06510826 -0.19133958 0.08613459 -0.08521619 0.04185214 -0.18268685
0.02238862 -0.14332405 -0.14109616 -0.10675207 0.09103921 -0.030338 0.15499796 -0.083896406
-0.015891947 0.02665272 0.055634234 -0.0014426509 -0.070125446 0.12476249 0.17311592 0.11709137
-0.08810286 0.067897014 -0.10325742 0.16327803 -0.06948504 -0.10476603 -0.23642913 -0.0010779735
-0.11760847 -0.036858402 0.018164234 -0.05812938 0.10866332 -0.09205703 -0.17626607 -0.1413252
-0.046689715 -0.03748754 0.030324867 -0.011123426 0.05494283 0.055375285 0.20145264 -0.22501484
0.14307852 -0.08442017 0.0786254 0.026340576 -0.007526292 -0.07725225 -0.10112735 0.054145917
0.10353531 0.13313816 0.20279679 0.052775927 -0.18477517 -0.029561726 -0.08921812 0.17821434
0.04445766 -0.1349486 0.023949295 0.021386592 0.094848596 0.0999679 0.055939283 -0.050133977
0.10787704 0.10698125 -0.21912736 -0.030863676 -0.049959026 0.07125926 0.10930835 -0.09995052
0.06570359 0.14064218 -0.09726408 -0.021088704 0.07933794 0.102981925 0.111266404 0.21069278
0.045743 -0.09173422 -0.06600112 0.15802392 0.15191038 0.04862085 0.031885386 0.024693726
0.12480271 -0.020046579 0.0915559 -0.01427743 0.12834817 0.13118201 0.07066148 0.061855134
0.021112995 0.09612762 0.1260446 0.116968505 0.056583844 -0.025574334 0.03810144 0.13115242
-0.036111295 0.023251353 0.20354444 0.014486991 -0.063984185 -0.1865494 -0.16024433 0.07397865
-0.083498396 -0.08918773 0.25293908 0.019917022 0.02245804 -0.14682558 0.03678335 -0.18091454
0.097390264 -0.061352454 -0.11395099 0.05369446 0.0017134786 0.14822395 0.069830924 0.01434736
-0.07792101 -0.058438383 -0.08062381 0.11763412 0.087181166 0.027102329 -0.16521138 -0.14877357
-0.074544504 0.15204275 -0.10698119 -0.09544548 -0.18951277 0.18618995 0.08170135 -0.17382944
0.07204909 -0.0024539027 0.17623742 -0.095828556 0.014922132 -0.16568625 -0.042321224 -0.11079907
-0.012924264 0.1207216 -0.09639908 -0.072235994 -0.05382927 0.04130769 -0.11076965 -0.028845027
-0.05614409 -0.12419741 -0.009468818 -0.06142639 -0.15949954 -0.22071293 0.010855417 -0.05750122
-0.16464184 -0.14826255 0.25893947 -0.18255599 -0.18239316 0.13821581 0.0140851475 -0.13308531
-0.086680084 0.023533368 -0.06822669 0.100747444 -0.13253818 0.28374898 0.13884875 0.18426727

4.bias f4 [4]
00000000: 5704 a63c dcac ebbc f6ba 523a b757 36bc
0.020265741 -0.02876895 0.00080387236 -0.011129311
