model/policy.pt (torch, 87903 bytes, 6 tensors)

0.weight f4 [128, 33]
0.030646447 0.078130834 0.02466356 -0.024305632 0.0025173782 0.0072289947 0.0044258046 0.027274529
0.011516056 -0.0076219207 -0.00982518 -0.020438507 0.012574684 -0.058571093 0.0980415 0.0067708488
0.015002678 -0.02141678 0.001219225 -0.005400837 -0.033156615 0.0012617599 -0.013135591 -0.043890096
0.045920935 -0.07129271 -0.012124149 0.015084629 -0.06977376 -2.31387e-40 -0.015113341 5.56495e-40
-0.06759038 -0.010193361 -0.04720976 -0.045708574 0.02031223 -0.0031642604 -0.005312978 -0.00017444955
0.0051318756 0.0050250404 -0.0036949003 0.014365296 -0.018984279 -0.024679733 -0.050710354 -0.031998795
0.034149166 -0.01037576 -0.0032848392 -0.005172426 0.0021612034 -0.0019903907 0.019396123 0.015073609
-0.01452086 0.0059541212 0.032929022 -0.017958377 -0.015823802 0.034902334 2.27888e-40 0.015825156
1.00696e-40 0.0073256963 0.01782019 0.0560216 -0.04342218 0.001103745 0.00830966 0.012170071
-0.0042861355 -0.024541883 -0.0069801016 0.0311575 0.053789873 -0.051782537 0.033065747 -0.02261436
0.027104953 -0.0685238 0.0032595922 0.0020418214 0.0054775197 0.0045666075 0.042465135 -0.02967249
0.010824858 0.09698885 -0.015753578 0.04546933 -0.01416978 -0.0016073558 0.024380468 -1.87469e-40
0.0016004808 1.35486e-40 -0.019010125 -0.020848734 0.06671747 0.060764134 0.026606511 0.004709553
0.0014832432 0.016478525 0.007856511 0.0033358694 -0.0169749 -0.047387313 0.05963972 -0.024965303
-0.004620936 -0.04704994 0.08548782 0.0048414273 -0.005716841 -0.017120248 -0.021042638 0.009418876
0.028094936 -0.016930697 -0.011299888 -0.06499236 0.019268217 0.023113014 0.0032124296 -0.09957675
-2.9655e-40 -0.0031541935 -1.53501e-40 0.041147493 0.052438475 0.07914117 -0.009427453 -0.015592581
0.013769608 0.02403694 0.0009143739 0.035435345 0.0038436 -0.0020312273 0.02314668 0.043188967
0.019153621 -0.0028053417 0.020579675 0.04462649 0.009089027 -0.0100045055 -0.01124216 -0.025536455
-0.041131098 -0.019231107 -0.011789874 0.009926955 -0.04149692 -0.038557664 -0.060967337 -0.0064503546
-0.066799656 -6.46731e-40 0.006495547 -3.61356e-40 -0.118770026 -0.09069729 -0.0026889993 0.008793267
-0.0035446817 -0.0025875876 0.0015433708 -0.0056377174 0.0003931187 -0.0016749976 0.003045931 -0.010924829
-0.04680845 0.0073403846 0.13064124 -0.0054952516 -0.0943429 -0.0031410803 0.00043238318 0.0066322056
0.0055186567 0.05904842 0.0034721377 -0.014994942 0.016283704 0.0030781275 0.020710604 -0.0640046
0.00070683577 0.10625095 -3.9539e-40 -0.000585171 3.27901e-40 -0.09401626 0.14582983 -0.026469197
-0.20565641 0.014001054 -0.008049783 0.02703533 -0.015032643 0.006146471 -0.005145863 0.00894869
0.024885839 -1.2948781e-05 -0.011573005 0.018100325 -0.14829126 0.08053717 0.0062879273 -0.017114107
0.0029690983 0.0132919885 0.038568214 -0.012935268 0.016693069 0.04234827 -0.051758986 -0.0054505896
-0.036261387 -0.020754226 -0.0016663126 -2.54986e-40 0.024304053 -4.65417e-40 -0.008528857 -0.07852314
-0.062163837 -0.061481778 0.0055087116 -0.004903333 0.0014780607 -0.019988243 0.0026032282 -0.007169552
-0.0040717274 -0.021306636 -0.0063603553 0.017708078 0.03725964 -0.015338796 0.03102618 -0.01619624
-0.011279293 -0.0041257013 -0.0034358746 0.010688261 0.0024503428 -0.02611164 0.016706813 -0.04850213
00000000: 420e fb3c 0f03 a03d 3c0b ca3c 9b1c c7bc
00000010: 99fa 243b 34e1 ec3b 5706 913b d56e df3c
00000020: d7ad 3c3c 4ec1 f9bb cbf9 20bc a86e a7bc
00000030: 0c06 4e3c 3ee8 6fbd fbc9 c83d ffdd dd3b
00000040: cbcd 753c 3e72 afbc 67ce 9f3a 81f9 b0bb
00000050: 3bcf 07bd a361 a53a a936 57bc 1ac6 33bd
00000060: 9717 3c3d ea01 92bd 5ea4 46bc 8525 773c
00000070: 8ce5 8ebd 0385 0280 f29d 77bc 480f 0600
00000080: d36c 8abd 0e02 27bc 055f 41bd ea38 3bbd
00000090: d565 a63c 7b5f 4fbb 7d18 aebb 72ec 36b9
000000a0: 4b29 a83b 18a9 a43b 2426 72bb 6b5c 6b3c
000000b0: eb84 9bbc 272d cabc a9b5 4fbd 2b11 03bd
000000c0: ffdf 0b3d 17ff 29bc 7546 57bb 747d a9bb
000000d0: faa2 0d3b 3771 02bb 9ee4 9e3c 4cf7 763c
000000e0: e7e8 6dbc ca1a c33b 95e0 063d 721d 93bc
000000f0: eba0 81bc c0f5 0e3d 427b 0200 c2a3 813c
00000100: b318 0100 650c f03b a6fb 913c e876 653d
00000110: 75db 31bd 89ab 903a 3d25 083c fa64 473c
00000120: b672 8cbb 0f0c c9bc 56b9 e4bb 033e ff3c
00000130: c552 5c3d ed19 54bd f36f 073d c041 b9bc
00000140: 350b de3c 3556 8cbd e29e 553b 14d0 053b
00000150: c47c b33b 7ba3 953b ecef 2d3d b913 f3bc
00000160: bf5a 313c 17a2 c63d a60d 81bc 0c3e 3a3d
00000170: 5d28 68bc e9ad d2ba 8cb9 c73c 960a 0280
00000180: 39c7 d13a ae79 0100 1fbb 9bbc f7ca aabc
00000190: 2ba3 883d d0e3 783d e6f5 d93c 9852 9a3b
000001a0: 6269 c23a f9fd 863c 98b8 003c 9a9e 5a3b
000001b0: f20e 8bbc 3319 42bd c748 743d 0984 ccbc
000001c0: 386b 97bb 70b7 40bd 3d14 af3d d6a4 9e3b
000001d0: 5754 bbbb c33f 8cbc 9c61 acbc a151 1a3c
000001e0: 5a27 e63c 3fb2 8abc 2a23 39bc b71a 85bd
000001f0: 61d8 9d3c 8157 bd3c a087 523b e5ee cbbd
00000200: a93a 0380 96b6 4ebb e6ab 0180 468a 283d
00000210: bac9 563d c414 a23d 9b75 1abc 0678 7fbc
00000220: ec99 613c 1ee9 c43c 98b2 6f3a a724 113d
00000230: e8e4 7b3b 571e 05bb 1b9e bd3c eae6 303d
00000240: 0ee8 9c3c d3d9 37bb b596 a83c 44ca 363d
00000250: 24ea 143c f0e9 23bc 0931 38bc d431 d1bc
00000260: 1579 28bd 8e8a 9dbc 512a 41bc aba4 223c
00000270: adf8 29bd a4ee 1dbd e3b8 79bd 7f5d d3bb
00000280: 42ce 88bd d30a 0780 99d8 d43b 50ef 0380
00000290: b33d f3bd 80bf b9bd ec39 30bb a311 103c
000002a0: e44d 68bb 8494 29bb ee4a ca3a 9abc b8bb
000002b0: 801b ce39 988b dbba 3e9e 473b 0efe 32bc
000002c0: 38ba 3fbd 9c87 f03b d1c6 053e 8311 b4bb
000002d0: da36 c1bd 95da 4dbb 7db1 e239 f952 d93b
000002e0: d9d5 b43b c2dc 713d ce8c 633b 58ad 75bc
000002f0: 6765 853c 69ba 493b 49a9 a93c d814 83bd
00000300: f24a 393a 199a d93d 304e 0480 2966 19ba
00000310: 0e92 0300 998b c0bd 6a54 153e eed5 d8bc
00000320: 9897 52be ad64 653c 3de3 03bc 3279 dd3c
00000330: 7a4b 76bc 5668 c93b a19e a8bb 879d 123c
00000340: 63dd cb3c 973e 59b7 b39c 3dbc 2247 943c
00000350: aad9 17be acf0 a43d f50a ce3b e232 8cbc
00000360: 3495 423b a4c6 593c b4f9 1d3d 72ee 53bc
00000370: e7bf 883c 6175 2d3d 3b01 54bd dc9a b2bb
00000380: d286 14bd c404 aabc 2c68 daba ccc6 0280
00000390: 4b19 c73c 6511 0580 9ebc 0bbc bdd0 a0bd
000003a0: 829f 7ebd 51d4 7bbd 6c82 b43b 23ac a0bb
000003b0: 7dbb c13a 62be a3bc ec9a 2a3b 90ee eabb
000003c0: 206c 85bb 418b aebc 876a d0bb 8810 913c
000003d0: 909d 183d 934f 7bbc 9e2a fe3c faad 84bc
000003e0: c9cc 38bc e430 87bb 692c 61bb d11d 2f3c
000003f0: ee95 203b 14e8 d5bc badc 883c 2baa 46bd

0.bias f4 [128]
-0.015113193 0.015853515 0.0016003562 -0.0032906667 0.006482705 -0.0005523919 0.019977605 0.018308247
-0.0030683659 0.011373618 0.022519592 -0.008307265 0.021283045 -0.008308356 0.030442555 0.007579977
0.016319951 -0.018802628 0.023816733 0.0397637 0.0022196993 0.011538372 0.072671935 0.0073330863
0.043767024 0.012555303 0.0050200326 0.10560804 0.08451904 0.019349901 0.036889236 0.0024866958
-0.008372908 0.002192561 0.010635138 -0.024485508 -0.03910385 0.009043438 0.027998693 0.02153071
0.002998388 0.019173317 0.0006677675 -0.00011984438 0.023695106 0.011918649 0.003921941 0.015485458
0.0089056855 0.06395041 -0.017435618 -0.0003921973 0.01794316 0.0069595524 0.019670835 -0.009842431
0.007636039 -0.0038151997 0.0021151681 -0.00529667 0.01631345 0.014964653 0.025293395 0.008002349
0.031091949 0.0061112475 0.012665377 0.007749555 0.012113624 0.00886864 0.03759775 0.028523544
0.023044365 -0.012470832 0.0005991904 0.016053371 0.050800014 0.0150329 0.00790303 0.047170844
0.027041897 -0.002798809 0.017891213 -0.0014793858 0.0061231763 0.012504816 0.0057879407 0.019353017
0.013059391 0.016337307 0.03581826 0.019328557 0.018556846 0.03435053 -0.016625132 -0.0043555195
0.023666887 0.018429235 0.01571684 0.03389409 -0.0046301233 0.036669012 0.013822696 0.006675886
0.039191827 0.07220866 0.0075176684 0.0011468254 0.012420522 0.068015434 0.025201585 0.007977675
-0.009956904 0.031239433 0.047158655 0.037399046 -0.0033963851 -0.0035643843 0.017871024 0.021066902
0.061322946 0.018573062 -0.004116407 -0.004460151 0.037036516 0.004759151 -0.00026483336 0.019060005
00000000: 539d 77bc 3bdf 813c 0bc3 d13a 3aa8 57bb
00000010: df6c d43b 65ce 10ba 13a8 a33c 2dfb 953c
00000020: a316 49bb 6958 3a3c 027b b83c 321b 08bc
00000030: c859 ae3c c51f 08bc aa62 f93c 7561 f83b
00000040: 6bb1 853c f807 9abc 4f1b c33c 43df 223d
00000050: 6078 113b 710b 3d3c 06d5 943d 634a f03b
00000060: 0d45 333d c2b4 4d3c 167f a43b 0749 d83d
00000070: 5218 ad3d af83 9e3c 2b19 173d d5f7 223b
00000080: 862e 09bc 12b1 0f3b 003f 2e3c d595 c8bc
00000090: 5c2b 20bd ee2a 143c 845d e53c 2c61 b03c
000000a0: 9a80 443b 5c11 9d3c 1e0d 2f3a f654 fbb8
000000b0: 3d1c c23c 7046 433c a083 803b b8b6 7d3c
000000c0: 27e9 113c 6ff8 823d 24d5 8ebc d59f cdb9
000000d0: 89fd 923c f50c e43b bb24 a13c 2642 21bc
000000e0: bd37 fa3b 6e08 7abb a29e 0a3b b08f adbb
000000f0: c9a3 853c 4e2e 753c 1834 cf3c 491c 033c
00000100: 8bb4 fe3c dc40 c83b 7182 4f3c fbef fd3b
00000110: 3978 463c c64d 113c 1900 1a3d 35aa e93c
00000120: 89c7 bc3c 7652 4cbc fd12 1d3a 5c82 833c
00000130: ad13 503d 8d4c 763c b67b 013c 3736 413d
00000140: f886 dd3c 396c 37bb 9890 923c f3e7 c1ba
00000150: eda4 c83b 00e1 4c3c c4a8 bd3b 388a 9e3c
00000160: 0ef7 553c d1d5 853c 2bb6 123d ec56 9e3c
00000170: 8704 983c 24b3 0c3d 6e31 88bc bfb8 8ebb
00000180: 0fe1 c13c e8f8 963c 9ac0 803c 88d4 0a3d
00000190: 4ab8 97bb 3f32 163d 9778 623c 64c1 da3b
000001a0: 9c87 203d 22e2 933d c656 f63b 1351 963a
000001b0: 727f 4b3c ad4b 8b3d 8e73 ce3c cbb4 023c
000001c0: 4822 23bc d7e9 ff3c 6f29 413d be2f 193d
000001d0: e395 5ebb 7298 69bb 4166 923c 7f94 ac3c
000001e0: c52d 7b3d 8926 983c ede2 86bb 7526 92bb
000001f0: 9ab3 173d a7f2 9b3b 55d9 8ab9 ba23 9c3c

2.weight f4 [128, 128]
-0.0024103858 0.006866528 -0.011068526 0.00063420174 0.011807614 -0.019701507 -0.007899371 0.017484795
-0.0041182907 -0.010079688 0.009579568 0.0010742913 0.0071179457 -0.010474253 0.0035588362 0.00014304806
0.018463468 0.008078761 -0.019041473 0.04157261 5.1381827e-05 -0.0015047248 -0.021094954 -0.008475363
0.030858627 0.025256751 0.020527145 0.036416862 0.04224922 0.028113123 0.0158592 -0.01316659
-0.0019486859 -0.009399946 0.0009876412 -0.009778511 -0.015214902 -0.002863004 -0.013004421 0.038364075
-0.00659777 0.023767464 -0.0097058285 -0.001936969 0.0050933356 0.007611678 0.002850329 0.026187133
0.03715188 0.02979265 0.0085643325 -0.011074647 0.012639918 0.015525906 0.010377455 -0.0037285583
0.0043575503 0.012554676 0.002305815 0.02901432 -0.009379968 0.009081238 0.02319783 0.019308437
-0.00053133257 0.011114079 0.01581198 -0.015199204 0.024655385 -0.01976257 0.019482678 -0.0038552198
0.019263653 0.018194214 -0.012793969 0.042370204 -0.009287432 0.033496663 -0.012424901 0.036368754
0.017037382 0.0007608785 0.019545967 0.015243368 0.015290072 0.01619555 0.005638499 -0.0022900875
-0.023237538 0.02900485 0.011610466 0.024771862 0.004957523 0.010560294 -0.015158909 -0.00687666
-0.0055938303 -0.02226526 0.010408667 -0.0012725127 0.0018041157 0.011552402 -0.01208121 -0.017294407
0.0093354685 0.024422705 -0.010861561 -0.009136855 0.022041613 0.044803057 0.017793354 -0.0054114438
0.023103496 0.007800129 0.021420995 -0.0043848758 -0.019999051 0.014583396 -0.007207308 -0.0036929813
0.030519089 0.008336609 0.008771169 0.0020254666 -0.03179828 0.015479666 -0.01830852 -0.019702077
0.009552714 -0.009490134 0.020627683 0.024396919 0.0077113155 0.018438406 -0.010522747 -0.0011917154
0.0023012457 0.019149689 -0.0017679009 0.016739802 0.019555314 0.032519888 0.006489448 -0.027644372
-0.024071608 -0.025246985 0.0064351726 0.010944188 -0.005196555 0.0023900392 0.051086202 0.006813757
-0.014599818 0.00010313709 -0.009025415 -0.0034293404 0.010407564 -0.005145807 -0.0051283645 -0.009320213
0.006776579 0.022424677 -0.00940891 -0.0020303568 -0.043533098 -0.019231666 0.020839263 0.020177515
0.013698456 -0.0012367213 0.010943348 -0.008821183 0.00014247377 -0.007871825 0.013093675 0.025476733
0.027822912 -0.012453502 -0.0280443 0.024230564 0.014312414 -0.0149741955 -0.024625186 0.017735476
-0.0041983295 -0.008923775 0.037235364 -0.017175345 0.0054336363 0.01148221 0.021556238 -0.050028786
0.025297647 -0.008859049 -0.022366453 -0.010622372 0.029067218 0.01895944 -0.010154731 0.021520114
-0.01963413 -0.010907018 0.014898708 0.013129734 -0.0008620894 -0.022459155 0.030128976 0.014477967
0.016439369 -0.0033158916 -0.00995218 0.01764595 -0.020077225 -0.019064635 -0.011783605 0.028211696
0.0005051349 0.030923435 -0.019113397 -0.008299785 0.021838875 0.020498835 0.01568224 -0.000760277
0.031159585 0.008881038 -0.0060106115 0.013916192 -0.027937833 -0.03038534 -0.0027355177 0.013669069
-0.026352879 -0.030315705 -0.0020632672 0.007439492 -0.008549592 -0.0037033306 0.021595052 0.004371547
0.033053614 -0.0012448763 -0.030101506 0.007018638 0.006788357 -0.02927441 0.021185499 -0.0051707225
-0.03789722 -0.012389712 -0.03012712 0.01761199 0.050546296 -0.014048651 -0.0031543646 0.026362728
00000000: 90f7 1dbb 9d00 e13b c358 35bc 8f40 263a
00000010: b974 413c 0e65 a1bc 5d6c 01bc 463c 8f3c
00000020: baf2 86bb 4725 25bc 9ff3 1c3c 3ccf 8c3a
00000030: a83d e93b 349c 2bbc 5d3b 693b 2cff 1539
00000040: b340 973c c85c 043c ddfc 9bbc 0b48 2a3d
00000050: d182 5738 303a c5ba 53cf acbc 40dc 0abc
00000060: 3bcb fc3c 3fe7 ce3c 8b28 a83c d929 153d
00000070: 850d 2d3d 7e4d e63c 27eb 813c aeb8 57bc
00000080: 0c6b ffba 3b02 1abc bd73 813a 0c36 20bc
00000090: ed47 79bc 3da1 3bbb 7f10 55bc a623 1d3d
000000a0: 1b32 d8bb fcb3 c23c 3205 1fbc e5e1 fdba
000000b0: ffe5 a63b 626b f93b 96cc 3a3b 6686 d63c
000000c0: 922c 183d b70f f43c 6a51 0c3c 7072 35bc
000000d0: a917 4f3c 5f60 7e3c 3306 2a3c d45a 74bb
000000e0: c8c9 8e3b 21b2 4d3c 281d 173b 70af ed3c
000000f0: 70ae 19bc 79c9 143c 6009 be3c ba2c 9e3c
00000100: 2049 0bba d317 363c 2088 813c 1506 79bc
00000110: 17fa c93c 1de5 a1bc 239a 9f3c dba7 7cbb
00000120: cfce 9d3c 080c 953c cc9d 51bc 618c 2d3d
00000130: 502a 18bc cc33 093d d091 4bbc 67f7 143d
00000140: fb91 8b3c b175 473a dd1e a03c 52bf 793c
00000150: 3683 7a3c 88ac 843c 28c3 b83b 4b15 16bb
00000160: a65c bebc 949b ed3c d339 3e3c 5cee ca3c
00000170: b872 a23b 1505 2d3c 135d 78bc 9b55 e1bb
00000180: 734c b7bb a265 b6bc 1d89 2a3c 71ca a6ba
00000190: 1478 ec3a 4946 3d3c 44f0 45bc 00ad 8dbc
000001a0: cbf3 183c 2012 c83c b0f4 31bc bfb2 15bc
000001b0: 9d90 b43c 6983 373d 5ec3 913c 7b52 b1bb
000001c0: 8b43 bd3c 3998 ff3b 157b af3c 01af 8fbb
000001d0: 0dd5 a3bc 32ef 6e3c 482b ecbb f205 72bb
000001e0: 2b03 fa3c 4696 083c f3b4 0f3c b1bd 043b
000001f0: ea3e 02bd 6d9e 7d3c c0fb 95bc 4066 a1bc
00000200: fd82 1c3c 827c 1bbc 63fb a83c 0cdc c73c
00000210: 34af fc3b 240c 973c 9a67 2cbc 5533 9cba
00000220: 7fd0 163b cfdf 9c3c e9b8 e7ba e921 893c
00000230: 7732 a03c 9333 053d 6fa5 d43b 7376 e2bc
00000240: d231 c5bc c4d2 cebc 24de d23b 404f 333c
00000250: dd47 aabb 34a2 1c3b c43f 513d f045 df3b
00000260: 1334 6fbc 4e4b d838 56df 13bc c9be 60bb
00000270: 7d84 2a3c 289e a8bb d70b a8bb cfb3 18bc
00000280: 110e de3b f5b3 b73c d427 1abc bc0f 05bb
00000290: c34f 32bd ba8b 9dbc 1ab7 aa3c 514b a53c
000002a0: 7d6f 603c 7b19 a2ba ba4b 333c b986 10bc
000002b0: 0365 1539 d4f8 00bc da86 563c 95b4 d03c
000002c0: e0ec e33c c609 4cbc 29bd e5bc 2d7f c63c
000002d0: 9e7e 6a3c 5456 75bc c2ba c9bc fd49 913c
000002e0: 2492 89bb 0635 12bc 1c84 183d 4fb3 8cbc
000002f0: a50c b23b e11f 3c3c b596 b03c fcea 4cbd
00000300: 033d cf3c 8b25 11bc da39 b7bc 7509 2ebc
00000310: 601e ee3c d450 9b3c 0760 26bc f34a b03c
00000320: c1d7 a0bc 59b3 32bc b619 743c 191e 573c
00000330: d7fd 61ba 43fc b7bc 0bd1 f63c ff34 6d3c
00000340: dbab 863c 6e4f 59bb 780e 23bc 3d8e 903c
00000350: fe78 a4bc 702d 9cbc 0610 41bc 371c e73c
00000360: 086b 043a 2553 fd3c b393 9cbc d2fb 07bc
00000370: 71e7 b23c 2ced a73c 0a78 803c 534d 47ba
00000380: 6342 ff3c c681 113c aaf4 c4bb bd00 643c
00000390: e2dd e4bc adea f8bc 5f46 33bb 3bf4 5f3c
000003a0: fee1 d7bc a458 f8bc e137 07bb fbc6 f33b
000003b0: 9713 0cbc 94b3 72bb 1be8 b03c 323f 8f3b
000003c0: 3a63 073d 1e2b a3ba 6f97 f6bc 9afc e53b
000003d0: de70 de3b e3d0 efbc 368d ad3c 2a6f a9bb
000003e0: 1e3a 1bbd 38fe 4abc 26cd f6bc 0547 903c
000003f0: a209 4f3d 502c 66bc 75b9 4ebb a6f6 d73c

2.bias f4 [128]
0.027219594 0.015153456 0.020931937 0.008361875 0.018770833 0.015174442 0.02944622 0.019193953
0.007240714 0.015814204 0.009286192 0.026134228 0.007932083 0.01301765 0.010618127 0.0119040925
0.016395815 0.013686462 0.015121432 0.022514319 0.005005792 0.018233947 0.013923739 0.019834733
0.010508549 0.021835756 0.0046164384 0.012612883 0.020748695 0.017158026 0.018957775 0.02933302
0.025035713 0.02221611 0.016934134 0.015018215 0.019230098 0.02376769 0.017079204 0.010852169
0.015434682 0.025285121 0.021323694 0.023414874 0.012985931 0.008277975 0.017976055 0.01656826
0.025737746 0.012701116 0.018516798 0.0068634395 0.026796354 0.004799719 0.0066639036 0.016220372
0.01856622 0.0100030145 0.025211036 0.0088632405 0.017301414 0.020727234 0.0045337365 0.013569338
0.009031735 0.016976988 0.01979848 0.006313535 0.012583132 0.021001952 0.021051941 0.011774359
0.017548168 0.01926056 0.021131707 0.012103816 0.015762597 0.019066509 0.023993647 0.010946978
0.022205932 0.022713583 0.021351611 0.009966351 0.012964447 0.008502481 0.016727375 0.02930603
0.014438378 0.026310407 0.0074748006 0.01505325 0.015721807 0.013112985 0.012799941 0.017513381
0.022336323 0.0076955995 0.01573687 0.012756886 0.006363463 0.010144091 0.009891206 0.021292558
0.019826306 0.021237535 0.016617868 0.010404433 0.01995643 0.009883963 0.026466364 0.029896796
0.019840265 0.027277147 0.016816013 0.0069308616 0.020206489 0.016575852 0.0208153 0.010628044
0.008117985 0.030510807 0.01546186 0.008883792 0.008563313 0.011406767 0.01663701 0.016479159
00000000: a0fb de3c 3346 783c 7479 ab3c 3f00 093c
00000010: 4ac5 993c 399e 783c 3339 f13c a33c 9d3c
00000020: 8343 ed3b ca8c 813c 1d25 183c 7317 d63c
00000030: 91f5 013c fb47 553c a7f7 2d3c 6209 433c
00000040: 8450 863c 2f3d 603c e2bf 773c f36f b83c
00000050: a007 a43b 5c5f 953c 6520 643c 737c a23c
00000060: 0d2c 2c3c e6e0 b23c 7e45 973b 44a6 4e3c
00000070: 2bf9 a93c fd8e 8c3c 564d 9b3c cd4b f03c
00000080: b217 cd3c 8ffe b53c 74b9 8a3c f60e 763c
00000090: 7088 9d3c 75b4 c23c b0e9 8b3c 4ccd 313c
000000a0: c0e1 7c3c be22 cf3c 07af ae3c 8dd0 bf3c
000000b0: f1c2 543c 58a0 073c 8542 933c 29ba 873c
000000c0: f7d7 d23c 5718 503c 8ab0 973c b4e6 e03b
000000d0: 0784 db3c f646 9d3b e05c da3b 96e0 843c
000000e0: 2f18 983c afe3 233c 6087 ce3c 2037 113c
000000f0: b2bb 8d3c 29cc a93c bd8f 943b ee51 5e3c
00000100: d8f9 133c 5313 8b3c 6c30 a23c c5e1 ce3b
00000110: 7b29 4e3c 490c ac3c 1f75 ac3c 3ee9 403c
00000120: 2dc1 8f3c 52c8 9d3c 671c ad3c 154f 463c
00000130: 9020 813c 5e31 9c3c 538e c43c f45a 333c
00000140: 37e9 b53c d611 ba3c 93e9 ae3c e849 233c
00000150: d568 543c fd4d 0b3c d907 893c 3313 f03c
00000160: f28e 6c3c ec88 d73c 2cef f43b e8a1 763c
00000170: 05cb 803c d8d7 563c d8b6 513c 3978 8f3c
00000180: aafa b63c 5e2b fc3b 9cea 803c 4202 513c
00000190: 9984 d03b 6733 263c ba0e 223c bb6d ae3c
000001a0: c76a a23c 57fa ad3c 3222 883c 5b77 2a3c
000001b0: ab7b a33c 58f0 213c fdcf d83c 20ea f43c
000001c0: 0d88 a23c 5374 df3c bcc1 893c 481c e33b
000001d0: 1488 a53c 15ca 873c d984 aa3c 3f21 2e3c
000001e0: 4c01 053c cdf1 f93c be53 7d3c 538d 113c
000001f0: 234d 0c3c 73e3 3a3c 574a 883c 4dff 863c

4.weight f4 [4, 128]
0.099772155 0.10690467 -0.031004788 -0.076185554 0.0722112 0.07085121 0.121825986 0.029077854
-0.21413834 0.123758115 0.015729237 0.17651308 -0.10045733 -0.0010939752 -0.07119246 0.08731471
-0.031386 0.07272628 0.112719156 0.06361335 -0.014047521 4.1439915e-05 -0.0593629 0.13820742
-0.14890333 -0.02374464 -0.13145137 -0.051368948 0.06140193 0.07836875 -0.13070332 0.16666892
0.1762774 0.15919682 -0.03688953 0.07928928 -0.17341542 -0.011058441 -0.016834866 -0.0986126
0.08002658 0.14584059 0.122496404 0.13164109 -0.025013993 -0.12163168 0.004056392 -0.040905118
0.13064957 0.026558075 0.044889193 -0.02538801 0.07582977 -0.1571991 -0.16974819 0.13231912
-0.008165554 -0.12759085 0.11185328 -0.12821563 0.031638008 -0.10044311 -0.19991611 -0.031053303
-0.10538177 0.07083543 -0.13556181 -0.15110387 -0.06569929 0.031051712 -0.027058447 -0.17398798
0.060245287 0.13754025 0.071825035 -0.13657843 -0.009738193 -0.024692949 0.06048598 -0.15329643
-0.0038566522 0.123127356 -0.0031344667 -0.13761646 -0.16333106 -0.16512059 0.15291168 0.1452713
0.067357145 0.1797479 -0.16953474 -0.079251684 0.111978166 -0.0409402 -0.17013693 0.08242824
0.14024028 -0.043211035 -0.008883085 -0.087668695 -0.15743513 -0.14189577 -0.10692856 0.072098546
-0.016818464 0.023145424 0.034949914 -0.16890508 0.11983427 -0.11668782 0.043547846 0.14855273
0.058310002 0.11225676 0.09891835 -0.12605244 0.06654916 -0.009356201 0.041861475 -0.08570956
-0.21236908 0.11939621 0.038692605 -0.10156506 -0.1246407 -0.080326915 -0.09217928 -0.08454782
0.15890546 -0.098903015 0.19329128 -0.120899715 -0.21272089 -0.16216774 0.16592722 0.09334356
0.043287605 -0.097883716 -0.1680554 -0.16567668 -0.10117025 -0.012266014 -0.0066678775 -0.11028749
0.06282478 -0.09887407 -0.12182919 -0.0617014 -0.12734948 0.10028871 -0.07175385 -0.19309157
0.05113816 0.18908833 -0.054427035 0.0039131255 -0.06523926 -0.09537661 0.16709985 0.13332644
-0.08124358 -0.13844027 0.021255014 -0.065025456 0.21958756 0.18253331 0.06647024 0.078181915
0.0023348893 0.036282208 -0.057013508 0.027493158 -0.10118345 -0.14647637 -0.031183975 0.09340031
0.111166686 -0.10261543 -0.017123524 -0.09755467 -0.015195365 0.038423378 -0.071352325 -0.13356563
0.123018585 0.037660338 0.08223436 -0.066491336 0.04251403 -0.13044867 -0.03231197 -0.041580353
0.038096454 -0.086784154 0.16553093 -0.07337486 -0.042731725 0.13110349 0.19979855 0.07632115
0.00030033637 -0.09234394 0.0381542 -0.059298575 0.03448454 0.15513305 0.16021541 0.10423401
0.17429413 0.065969735 0.15520497 0.048775163 0.051784188 -0.10905027 -0.1087032 0.15414156
-0.13708593 -0.05719825 -0.118317045 0.09579354 -0.019966207 -0.007814478 0.03663034 -0.097205624
0.03906271 -0.11715567 0.0008884606 0.01468465 -0.07686537 0.097137935 0.06538693 0.100409456
0.16651623 0.14579429 0.097776026 -0.06952366 0.071538396 0.03257799 0.18979506 0.14907011
0.08335806 0.1548767 -0.09130973 -0.054822616 -0.15248628 0.063347414 -0.09790713 -0.08372107
0.0041644285 0.16373481 -0.20502628 -0.09176744 -0.18995562 -0.14928463 0.07924974 0.1732037
00000000: 5855 cc3d d6f0 da3d c1fd fdbc 2c07 9cbd
00000010: 77e3 933d 701a 913d e77f f93d ae34 ee3c
00000020: 1547 5bbe e574 fd3d 9ada 803c d8bf 343e
00000030: 93bc cdbd b763 8fba 5acd 91bd 0ed2 b23d
00000040: 9b8e 00bd 84f1 943d 4dd9 e63d b747 823d
00000050: 9327 66bc c5cf 2d38 8326 73bd 3f86 0d3e
00000060: 1d7a 18be 1f84 c2bc 309b 06be 3f68 52bd
00000070: 9780 7b3d cc7f a03d 17d7 05be 42ab 2a3e
00000080: 1082 343e 7e04 233e 7a19 17bd 6b62 a23d
00000090: d093 31be 772e 35bc 46e9 89bc 67f5 c9bd
000000a0: fae4 a33d 3c57 153e 65df fa3d eccc 063e
000000b0: 25ea ccbc 081a f9bd 7beb 843b 208c 27bd
000000c0: 00c9 053e 5290 d93c bbdd 373d 84fa cfbc
000000d0: a34c 9b3d cdf8 20be 78d2 2dbe aa7e 073e
000000e0: d1c8 05bc 2da7 02be 5513 e53d f54a 03be
000000f0: db96 013d 1eb5 cdbd cfb6 4cbe 7f63 febc
00000100: 66d2 d7bd 2a12 913d b7d0 0abe f9ba 1abe
00000110: 598d 86bd 2960 fe3c ada9 ddbc e829 32be
00000120: c3c3 763d 5ad7 0c3e 0119 933d 37db 0bbe
00000130: f18c 1fbc de48 cabc 26c0 773d bdf9 1cbe
00000140: e3bf 7cbb 322a fc3d a06b 4dbb 54eb 0cbe
00000150: 4240 27be 5f15 29be e194 1c3e 00c2 143e
00000160: 8bf2 893d d50f 383e 849a 2dbe b54e a2bd
00000170: cf54 e53d e9b0 27bd 6038 2ebe 23d0 a83d
00000180: 269b 0f3e 0efe 30bd 5c8a 11bc a58b b3bd
00000190: ad36 21be 204d 11be 5cfd dabd 67a8 933d
000001a0: e0c6 89bc 799b bd3c a427 0f3d 74f5 2cbe
000001b0: ab6b f53d 06fa eebd 3a5f 323d 351e 183e
000001c0: 78d6 6e3d dfe6 e53d b495 ca3d e413 01be
000001d0: ed4a 883d c04a 19bc f076 2b3d 7e88 afbd
000001e0: 4877 59be 0086 f43d 237c 1e3d 5801 d0bd
000001f0: a043 ffbd 7082 a4bd 7ec8 bcbd 6827 adbd
00000200: 1db8 223e aa8d cabd 26ee 453e 459a f7bd
00000210: 81d3 59be 4d0f 26be d3e8 293e e92a bf3d
00000220: 584e 313d 4277 c8bd b716 2cbe 26a7 29be
00000230: 5932 cfbd 64f7 48bc 367e dabb 68de e1bd
00000240: 47aa 803d 7d7e cabd 9581 f9bd 9bba 7cbd
00000250: e767 02be 2b64 cd3d aff3 92bd ccb9 45be
00000260: 3f76 513d 5fa0 413e e2ee 5ebd ad39 803b
00000270: 299c 85bd d054 c3bd 391c 2b3e ba86 083e
00000280: 0963 a6bd 49c3 0dbe ff1e ae3c 112c 85bd
00000290: 90db 603e 03ea 3a3e 8d21 883d d71d a03d
000002a0: f104 193b a79c 143d ff86 69bd 5539 e13c
000002b0: 4539 cfbd e7fd 15be 8975 ffbc a948 bf3d
000002c0: 5cab e33d 0a28 d2bd a246 8cbc beca c7bd
000002d0: fbf5 78bc d561 1d3d 2b21 92bd 6ec5 08be
000002e0: 2bf1 fb3d ba41 1a3d 7d6a a83d 9c2c 88bd
000002f0: 3123 2e3d 5694 05be 8e59 04bd 2950 2abd
00000300: 070b 1c3d e4bb b1bd f180 293e 8f45 96bd
00000310: 7607 2fbd fe3f 063e fe97 4c3e 434e 9c3d
00000320: 7776 9d39 d21e bdbd 9447 1c3d 10e3 72bd
00000330: a93f 0d3d 33db 1e3e 820f 243e a478 d53d
00000340: 297a 323e 241b 873d 0dee 1e3e 77c8 473d
00000350: a81b 543d bf55 dfbd c99f debd 49d7 1d3e
00000360: 4160 0cbe b648 6abd 3550 f2bd 672f c43d
00000370: 2c90 a3bc 4c08 00bc b209 163d be13 c7bd
00000380: 3800 203d 50ef efbd 95e7 683a e397 703c
00000390: 976b 9dbd 41f0 c63d 95e9 853d 79a3 cd3d
000003a0: 3b83 2a3e 194b 153e cc3e c83d 6c62 8ebd
000003b0: b982 923d 8070 053d a359 423e d6a5 183e
000003c0: a1b7 aa3d ff97 1e3e 9900 bbbd ae8d 60bd
000003d0: 5d25 1cbe 4abc 813d 8983 c8bd f475 abbd
000003e0: c275 883b 19aa 273e 69f2 51be 91f0 bbbd
000003f0: ba83 42be 12de 18be b04d a23d 505c 313e

4.bias f4 [4]
0.025562001 -0.0060486645 -0.022935534 -0.0009158963
00000000: 6767 d13c e033 c6bb 4de3 bbbc c318 70ba
